dqn_aggressive.pth (torch, 4623 bytes, 6 tensors)

fc1.weight f4 [16, 16]
0.05071932 0.094979644 0.0070411265 0.23221892 -0.08003926 0.23774588 -0.1250689 -0.20311296
-0.19320256 -0.13514203 -0.14370337 0.08555895 0.07288584 -0.24052384 -0.008528233 0.025595218
1.0138104 1.8833517 0.9409493 0.90506107 0.8795691 0.52005744 0.8748653 1.325903
0.61148417 0.1582784 -0.41002747 0.7966447 -0.16533917 0.06707865 0.018069535 -1.5352415
0.18549216 0.18352526 0.0043138913 -0.2698786 -0.10142103 0.14735278 0.12218838 -0.2546315
-0.03545884 -0.13201039 -0.18917675 0.058412787 0.0096440315 -0.0674108 0.22380203 0.116182216
1.5262021 1.8461635 0.99189603 0.53430825 0.80109525 0.54182947 1.0438087 0.9847173
0.34193528 0.15180418 0.11914541 0.48648646 -0.10210332 0.24617913 0.072609454 -1.2925372
-0.06967929 -0.010955274 -0.19802818 -0.059827 -0.047602654 -0.04838115 0.15374994 0.13969469
-0.121290594 -0.12556902 0.017781943 -0.15491363 0.065719366 0.1152136 0.1783875 -0.23610997
1.4097673 2.2472675 1.0955704 0.7543305 1.0895154 0.889425 1.3566759 1.5548787
0.45668346 -0.4652868 -0.006819124 0.7014722 -0.12839183 0.22246906 0.10058603 -1.43062
-0.016964804 0.2199095 0.20702966 -0.2167372 0.2281804 -0.02292271 -0.20280439 -0.13942203
0.23462799 -0.08279206 -0.09134325 -0.12240004 -0.15910894 -0.07332304 0.06370336 0.15356629
1.8822641 5.273793 1.9728792 0.44203502 0.5228992 0.16697165 1.1176196 1.4034349
-0.32221925 -1.0549067 -0.903735 -0.12328699 0.20995173 -0.08361307 -0.008806378 -1.3175617
1.2837511 4.093375 1.3839656 -0.09874674 0.4876879 0.01923628 0.56309444 0.73224646
-0.28780112 0.1270893 -1.4172148 0.10580861 -0.02240783 -0.08306393 -0.14043534 -1.5697737
-0.130173 -0.049276292 0.19530347 -0.12590365 0.010068576 0.06449369 -0.110333554 0.04989257
-0.15301216 0.14501604 -0.16218701 -0.18186355 0.07936251 -0.10174888 0.18110141 -0.22224256
-0.14353585 -0.06176117 -0.018077552 -0.045692325 -0.1898742 -0.0024260283 -0.12033102 -0.013663381
-0.0752742 -0.21552911 -0.17952678 -0.058000177 -0.0806168 -0.0010590553 -0.23010421 0.02319467
-0.051633596 0.007705033 -0.22331104 0.090040386 -0.09119293 -0.0121462345 -0.109555334 0.21475905
-0.025281578 -0.13353229 -0.21840334 -0.1507422 -0.09003028 -0.013136506 -0.13625884 0.17668006
1.0395037 1.9059092 0.67923176 0.8026124 0.8608782 0.84675086 0.61762416 1.317055
0.21305774 0.74590844 -0.45455113 0.5339753 0.01800841 -0.17042297 0.17855248 -1.209667
1.3965211 1.9374452 0.7658277 0.5707604 0.2851647 0.34238064 0.8682043 0.43983096
0.4343619 0.103758685 0.85568357 0.3918837 0.10305908 -0.03890711 -0.14283276 -1.8140988
0.20134437 0.210311 -0.19630471 0.18683448 0.009124547 0.059340805 -0.24824 -0.113161236
0.18717033 -0.14277452 -0.22067586 -0.19486439 0.20661101 -0.023843795 -0.09577483 -0.18769744
-0.1954544 -0.1514967 0.1769887 0.09505416 -0.15863322 -0.0060079023 0.03682365 -0.013586874
-0.10553022 -0.054825004 0.09581568 0.34113532 -0.028974026 -0.20102867 -0.18980575 2.2114458
00000000: 10bf 4f3d b084 c23d 40b9 e63b ccca 6d3e
00000010: a0eb a3bd a873 733e 1012 00be d8fc 4fbe
00000020: e4d6 45be ac62 0abe fa26 13be 8839 af3d
00000030: 2c45 953d e24b 76be 00ba 0bbc 10ad d13c
00000040: 8ac4 813f ab11 f13f 0ee2 703f 15b2 673f
00000050: 712b 613f 7c22 053f 2cf7 5f3f 31b7 a93f
00000060: 3a8a 1c3f bc13 223e 1fef d1be e8f0 4b3f
00000070: ac4e 29be 8860 893d 9006 943c cb82 c4bf
00000080: a8f1 3d3e 0cee 3b3e 8b5b 8d3b 872d 8abe
00000090: d4b5 cfbd a6e3 163e e73d fa3d 0f5f 82be
000000a0: 4a3d 11bd bb2d 07be 8db7 41be 3f42 6f3d
000000b0: 0002 1e3c ac0e 8abd 5c2c 653e f1f0 ed3d
000000c0: 975a c33f 164f ec3f e6ec 7d3f 6dc8 083f
000000d0: 9414 4d3f 56b5 0a3f 869b 853f 6f16 7c3f
000000e0: 2412 af3e 8e72 1b3e 8202 f43d c114 f93e
000000f0: 8c1b d1bd 6216 7c3e 44b4 943d dc71 a5bf
00000100: 04b4 8ebd c07d 33bc e6c7 4abe 280d 75bd
00000110: 00fb 42bd 502b 46bd a070 1d3e 200c 0f3e
00000120: 3467 f8bd 2a95 00be 70ab 913c aea1 1ebe
00000130: e097 863d 1cf5 eb3d 36ab 363e d0c6 71be
00000140: 4173 b43f 3bd3 0f40 a73b 8c3f ce1b 413f
00000150: 3e75 8b3f 5bb1 633f 8ea7 ad3f 4406 c73f
00000160: 6ad2 e93e 123a eebe f572 dfbb af93 333f
00000170: 2679 03be eece 633e 0c00 ce3d 8e1e b7bf
00000180: c6f9 8abc f52f 613e 95ff 533e 5bf0 5dbe
00000190: 1fa8 693e 68c8 bbbc f4ab 4fbe a6c4 0ebe
000001a0: 5242 703e e28e a9bd 2b12 bbbd dfac fabd
000001b0: 74ed 22be 642a 96bd e876 823d 7b40 1d3e
000001c0: 08ee f03f eac2 a840 4e87 fc3f 6a52 e23e
000001d0: b9dc 053f 9efa 2a3e 290e 8f3f c1a3 b33f
000001e0: ecf9 a4be 2f07 87bf 2d5b 67bf e47d fcbd
000001f0: 96fd 563e 543d abbd a048 10bc dda5 a8bf
00000200: f551 a43f eefc 8240 c925 b13f bb3b cabd
00000210: 3ab2 f93e 6795 9d3c f526 103f 8174 3b3f
00000220: ab5a 93be b323 023e 4b67 b5bf 2fb2 d83d
00000230: a090 b7bc 6c1d aabd 48ce 0fbe 58ee c8bf
00000240: 124c 05be f0d5 49bd a2fd 473e e3ec 00be
00000250: abf6 243c 4515 843d 8ff6 e1bd 275c 4c3d
00000260: 38af 1cbe 167f 143e 5a14 26be 703a 3abe
00000270: d088 a23d b861 d0bd a672 393e 8e93 63be
00000280: 10fb 12be 48f9 7cbd 6017 94bc e027 3bbd
00000290: 626e 42be 00fe 1ebb 1c70 f6bd 60dc 5fbc
000002a0: 5c29 9abd aab3 5cbe ded5 37be 9891 6dbd
000002b0: 6c1a a5bd 00d0 8aba 70a0 6bbe c002 be3c
000002c0: c07d 53bd 807a fc3b a6ab 64be 1867 b83d
000002d0: 5cc3 babd 0001 47bc 8c5e e0bd cce9 5b3e
000002e0: 501b cfbc b0bc 08be 20a5 5fbe 2a5c 1abe
000002f0: cc61 b8bd 803a 57bc 7087 0bbe 9eeb 343e
00000300: 750e 853f d5f4 f33f 22e2 2d3f 0278 4d3f
00000310: 8462 5c3f aac4 583f 9e1c 1e3f 4295 a83f
00000320: cf2b 5a3e dbf3 3e3f edba e8be 9bb2 083f
00000330: 6086 933c 5c83 2ebe 76d6 363e 5ed6 9abf
00000340: 34c1 b23f 34fe f73f 490d 443f 5b1d 123f
00000350: 1c01 923e 844c af3e a342 5e3f 8631 e13e
00000360: af64 de3e 6f7f d43d 140e 5b3f fba4 c83e
00000370: a410 d33d 105d 1fbd c042 12be 6434 e8bf
00000380: 382d 4e3e c45b 573e 1a04 49be 8a51 3f3e
00000390: 207f 153c 580f 733d a032 7ebe 14c1 e7bd
000003a0: 94a9 3f3e 7c33 12be daf8 61be 888a 47be
000003b0: d691 533e 1054 c3bc 9825 c4bd c233 40be
000003c0: 3325 48be f321 1bbe 873c 353e c1ab c23d
000003d0: bf70 22be f0dd c4bb 65d4 163d 7b9b 5ebc
000003e0: 3a20 d8bd 2f90 60bd 033b c43d 4aa9 ae3e
000003f0: f05a edbc 76da 4dbe 705c 42be 5488 0d40

fc1.bias f4 [16]
-0.20683119 -1.5710212 -0.16123912 -1.3788248 -0.19033515 -1.3491055 0.006414635 -1.1903607
-1.4511362 -0.02422063 -0.24567601 -0.12275189 -1.4469491 -1.6381943 -0.19257864 2.033206
00000000: 8ecb 53be 3917 c9bf de1b 25be 557d b0bf
00000010: 38e7 42be 7daf acbf dc31 d23b bd5d 98bf
00000020: d5be b9bf 586a c6bc 7e92 7bbe 5865 fbbd
00000030: a135 b9bf 5ab0 d1bf 5633 45be 0c20 0240

fc2.weight f4 [12, 16]
0.050952613 -0.008476422 -0.09208116 -0.06937763 -0.09983027 -0.03650795 0.0020829944 -0.25652197
0.07091322 -0.014782935 -0.15247986 0.17582902 -0.075305335 -0.2963318 0.21888071 0.1118652
-0.023760945 0.8923125 0.07232738 0.9084121 -0.036821455 0.5945943 -0.17809832 0.08366705
0.3010163 0.2159916 0.014451176 0.019798338 0.826301 1.4502906 0.10982919 -2.1107984
0.053859323 -0.15014926 0.11124745 -0.14042915 -0.18775088 -0.22733821 0.08292605 -0.25098848
0.22662374 0.011725038 0.09059554 0.18907166 0.07390077 0.12832862 -0.18312809 -0.11628163
0.19404075 1.1496116 -0.26914647 0.7561691 0.107815236 1.3918511 -0.03819805 3.2412848
1.7363899 -0.11565859 -0.15377736 0.083312124 0.5469509 0.65197873 -0.0853661 -1.1292528
0.14316306 0.06335765 0.067578316 -0.24924797 0.1701251 -0.22698766 0.13178724 0.14446232
0.06323415 -0.19603789 0.10081476 0.039254844 -0.24742228 -0.027739197 0.09223732 -0.008402228
-0.059544712 0.5561088 -0.10984242 0.6577415 0.16116706 0.9840187 0.22760399 2.0335522
0.0007218559 -0.22841528 -0.2440041 -0.20233703 -0.040271565 1.6602293 0.17770961 -1.7726564
0.15895393 1.4332923 -0.19646989 0.41307843 -0.0447011 0.32236552 0.08105081 0.46846372
2.0637293 -0.20388359 -0.16197267 -0.14458391 1.6255563 -0.21669216 -0.11346674 -1.3789403
0.20608488 -0.00215135 -0.22969356 -0.27413142 -0.022997528 0.050256457 0.15835916 -0.17646953
0.058539677 0.2384941 -0.09900904 -0.09072986 -0.07540574 0.15681024 -0.18807423 -0.13697147
0.091591865 0.21076977 -0.03923896 -0.14499155 0.13927418 -0.18134844 -0.19348729 0.016917288
-0.045042455 -0.2054866 -0.21103302 -0.13589317 -0.027790278 0.03965971 -0.17837432 -0.054564536
-0.10688138 -0.054159403 0.16510016 -0.17131045 -0.09397259 0.078669935 -0.023410022 -0.06715137
-0.121573955 -0.22985753 0.15926379 0.13609701 -0.14164525 -0.1560094 0.006871462 -0.20776847
-0.1875444 1.5562284 -0.105496876 0.82604456 -0.1192157 1.730654 -0.1307178 2.181402
1.8031205 0.05057502 0.13126436 0.13243061 0.7840769 -0.03508684 -0.14122781 -1.198962
-0.004432678 0.5791526 0.029707083 0.91282624 0.064977884 0.9093747 -0.10256929 4.059251
1.5466422 -0.13562368 0.089931905 0.12392238 0.47351888 1.1413459 -0.19277364 -0.1263781
00000000: b0b3 503d b1e0 0abc 0c95 bcbd dc15 8ebd
00000010: d073 ccbd 5c89 15bd d982 083b d956 83be
00000020: f33a 913d 2034 72bc ae23 1cbe 860c 343e
00000030: af39 9abd cdb8 97be 4422 603e 9519 e53d
00000040: 50a6 c2bc 986e 643f 6120 943d b28d 683f
00000050: 18d2 16bd 5537 183f 685f 36be a159 ab3d
00000060: cf1e 9a3e e72c 5d3e a0c4 6c3c 2030 a23c
00000070: 7688 533f 1fa3 b93f 20ee e03d 5217 07c0
00000080: 989b 5c3d bac0 19be b4d5 e33d a9cc 0fbe
00000090: c441 40be 59cb 68be 22d5 a93d 9081 80be
000000a0: 0e10 683e 601a 403c 288a b93d 009c 413e
000000b0: 4959 973d 9468 033e ee85 3bbe 1025 eebd
000000c0: 9eb2 463e 7926 933f 91cd 89be 4c94 413f
000000d0: 3cce dc3d 2d28 b23f 8f75 1cbd 3671 4f40
000000e0: 0642 de3f 69de ecbd d077 1dbe 8c9f aa3d
000000f0: f904 0c3f 14e8 263f 6cd4 aebd 5b8b 90bf
00000100: 5699 123e a8c1 813d 8066 8a3d dc3a 7fbe
00000110: 4635 2e3e 746f 68be 3cf3 063e eeed 133e
00000120: e880 813d 28be 48be f877 ce3d b0c9 203d
00000130: 445c 7dbe 503d e3bc ece6 bc3d 80a9 09bc
00000140: 28e5 73bd 255d 0e3f 10f5 e0bd bf61 283f
00000150: fa08 253e a6e8 7b3f 0511 693e b825 0240
00000160: ee3a 3d3a b2e5 69be 36dc 79be 7031 4fbe
00000170: ccf3 24bd 6582 d43f 82f9 353e 68e6 e2bf
00000180: d2c4 223e 1f76 b73f 672f 49be 047f d33e
00000190: 8018 37bd 180d a53e f8fd a53d 7ada ef3e
000001a0: 2414 0440 dcc6 50be 2adc 25be ce0d 14be
000001b0: 3b12 d03f 8de4 5dbe 4061 e8bd 1e81 b0bf
000001c0: ea07 533e aafd 0cbb ca34 6bbe f45a 8cbe
000001d0: 5065 bcbc b7d9 4d3d e728 223e 6eb4 34be
000001e0: 4dc7 6f3d cc37 743e 40c5 cabd 94d0 b9bd
000001f0: 536e 9abd dd92 203e 8896 40be 4042 0cbe
00000200: 8494 bb3d 08d4 573e 08b9 20bd aa78 14be
00000210: e49d 0e3e 68b3 39be 8821 46be 2096 8a3c
00000220: 707e 38bd 146b 52be 0a19 58be 9427 0bbe
00000230: 70a8 e3bc 3872 223d c2a7 36be 107f 5fbd
00000240: a0e4 dabd 40d6 5dbd 0410 293e 026c 2fbe
00000250: b474 c0bd b41d a13d 60c6 bfbc a886 89bd
00000260: c4fb f8bd c65f 6bbe 0c16 233e 045d 0b3e
00000270: 740b 11be eec0 1fbe 002a e13b 42c1 54be
00000280: a40b 40be 7e32 c73f bf0e d8bd a877 533f
00000290: 5c27 f4bd 1286 dd3f e3da 05be 179c 0b40
000002a0: a7cc e63f c127 4f3d 2a6a 063e e49b 073e
000002b0: 44b9 483f 38b7 0fbd 069e 10be 9677 99bf
000002c0: 0040 91bb 5843 143f 455c f33c fbae 693f
000002d0: 2013 853d c8cc 683f d90f d2bd 62e5 8140
000002e0: 5ff8 c53f efe0 0abe 382e b83d 04cb fd3d
000002f0: 1171 f23e 9f17 923f 7466 45be 4369 01be

fc2.bias f4 [12]
0.021882404 -1.4462496 0.12437618 -1.1435615 0.19251677 -2.4075124 -1.7014631 0.06108373
-0.13957289 0.029552221 -0.31087023 -0.7264882
00000000: ba42 b33c b51e b9bf f0b8 fe3d 3960 92bf
00000010: 1e23 453e af14 1ac0 8bc9 d9bf ef32 7a3d
00000020: 32ec 0ebe 8017 f23c 622a 9fbe 21fb 39bf

fc3.weight f4 [10, 12]
0.04646224 0.5733793 -0.25176397 0.57122 0.22504526 -0.019920407 0.30526048 -0.17395203
-0.054778606 -0.027264506 1.0078404 0.42101437 -0.010962753 2.162171 -0.17604476 0.08061174
-0.101576105 0.63256 0.8488666 -0.13016732 -0.0859589 0.06653759 0.09133788 -0.22215748
-0.19915934 0.93867904 0.15510926 0.71752495 0.18271378 0.5235405 0.47200364 -0.13074656
-0.169049 0.13473201 0.6797383 0.030052252 -0.113486215 -0.40761545 0.06964211 1.0250098
0.20460084 0.022694143 0.5865728 -0.18812923 0.22465777 -0.21766874 0.58579105 0.9225399
0.2678968 -0.25973895 -0.26299873 0.79063386 0.0021862388 -0.01588988 0.5591077 0.21862024
-0.06250878 -0.24414368 0.61403096 1.0593711 -0.1677004 -0.68017375 -0.26632467 0.74623805
0.01821962 0.00025807443 0.6604588 0.011058301 0.10026619 0.14363751 0.9884631 1.2598212
-0.12897104 0.9773994 -0.24728526 0.4413326 0.21165282 -0.08924536 1.1448381 -0.1029037
-0.1693776 0.19006461 0.37092108 0.51766086 0.14839946 1.2775294 0.21552616 0.36801454
-0.22938432 1.6576294 -0.43530646 0.0015679061 0.24637818 -0.00082314014 0.048325233 0.6752403
0.24332839 -0.4852287 -0.17114826 0.8080094 -0.054317236 0.98382103 0.8966038 0.12784776
-0.043481693 -0.23567519 0.8118358 0.5221423 0.18698925 -0.47417662 -0.23012479 0.862263
-0.2670427 0.15281223 0.62799186 -0.09808033 0.03171572 0.11626294 0.6815114 1.0349053
00000000: 314f 3e3d fcc8 123f 35e7 80be 793b 123f
00000010: 4472 663e 1f30 a3bc 1a4b 9c3e 7b20 32be
00000020: 885f 60bd d059 dfbc ea00 813f 328f d73e
00000030: 1e9d 33bc 0261 0a40 1445 34be c517 a53d
00000040: 2207 d0bd 74ef 213f 524f 593f 954a 05be
00000050: 380b b0bd dc44 883d 5b0f bb3d 407d 63be
00000060: 6df0 4bbe 454d 703f f6d4 1e3e b7af 373f
00000070: 5219 3b3e c006 063f 76aa f13e 6de2 05be
00000080: 2e1b 2dbe 30f7 093e 5403 2e3f 2430 f63c
00000090: 766b e8bd f9b2 d0be 86a0 8e3d 8533 833f
000000a0: e282 513e 11e9 b93c a329 163f f3a4 40be
000000b0: b00c 663e 8ee4 5ebe 67f6 153f 932b 6c3f
000000c0: c529 893e 81fc 84be c5a7 86be fb66 4a3f
000000d0: 0047 0f3b 7e2b 82bc af21 0f3f fcdd 5f3e
000000e0: 9a04 80bd cd00 7abe 2231 1d3f 7999 873f
000000f0: a7b9 2bbe de1f 2ebf b55b 88be 7509 3f3f
00000100: 5041 953c 2a4e 8739 d413 293f e02d 353c
00000110: 5c58 cd3d b615 133e eb0b 7d3f d241 a13f
00000120: fc10 04be d936 7a3f 5938 7dbe 59f6 e13e
00000130: 84bb 583e 45c6 b6bd 0e8a 923f 2dbf d2bd
00000140: 5271 2dbe 4ca0 423e 5ee9 bd3e 6c85 043f
00000150: 07f6 173e 1586 a33f e4b2 5c3e 676c bc3e
00000160: b9e3 6abe 332d d43f 7de0 debe 3382 cd3a
00000170: 904a 7c3e 00c8 57ba aef0 453d 8cdc 2c3f
00000180: 142b 793e e56f f8be 7d41 2fbe b4d9 4e3f
00000190: c07b 5ebd b2db 7b3f d487 653f 86ea 023e
000001a0: dc19 32bd d654 71be 79d4 4f3f 1eab 053f
000001b0: 1c7a 3f3e 47c7 f2be d5a5 6bbe 45bd 5c3f
000001c0: d2b9 88be cf7a 1c3e 13c4 203f 57de c8bd
000001d0: 58e8 013d 441b ee3d 8877 2e3f c777 843f

fc3.bias f4 [10]
-3.1591604 -2.317846 -1.2254813 2.9598105 3.0976768 3.7719507 -0.37170315 -0.8848762
-2.1846976 2.6265244
00000000: af2f 4ac0 9757 14c0 92dc 9cbf 896d 3d40
00000010: 5640 4640 a467 7140 e04f bebe 3f87 62bf
00000020: 16d2 0bc0 fa18 2840
