dqn_normal.pth (torch, 4527 bytes, 6 tensors)

fc1.weight f4 [16, 16]
0	0x3e2b606b	0.16736
1	0x3f854617	1.0412015
2	0x3d8f32e6	0.0699213
3	0x3f088088	0.53321123
4	0x3f49d8e2	0.7884656
5	0x3f4ecde2	0.807829
6	0x3ebef23c	0.37294185
7	0xbe4a7941	-0.19772817
8	0x3f7509c9	0.95718056
9	0xbf623266	-0.8835815
10	0xbf221981	-0.63320166
11	0xbf0a7bed	-0.54095346
12	0xbcbee3c0	-0.023301959
13	0x3b5f2780	0.0034050643
14	0x3d31bbf0	0.04339212
15	0x3e31ba27	0.17356168
16	0x3ea9942f	0.33120868
17	0x3eed4059	0.46338156
18	0xbf0eae2b	-0.5573451
19	0x3df3a6ce	0.1189705
20	0x3ee59ee3	0.44847783
21	0xbb85a160	-0.0040780753
22	0xc031421e	-2.7696605
23	0x3f439d42	0.7641183
24	0x3fe036e5	1.7516752
25	0x3fdc504e	1.7212007
26	0xbf147e80	-0.58005524
27	0x3e87a50f	0.26493117
28	0xbdf16ea0	-0.11788678
29	0x3d834d80	0.06411266
30	0xbd206908	-0.039162666
31	0xbed5a6d2	-0.41728836
32	0x3f23a3dc	0.63921905
33	0x3f89ceb3	1.0766205
34	0x3f02ee46	0.51144826
35	0x3fb01daf	1.3759059
36	0x3f47007c	0.77735114
37	0x3fa2f355	1.2730509
38	0x3f70c4fe	0.94050586
39	0xbfabbf34	-1.3417726
40	0xbe80cc01	-0.25155643
41	0xbe1d6d61	-0.15373756
42	0x3f248adc	0.6427438
43	0x3fe08408	1.7540293
44	0xbe44038e	-0.19141981
45	0xbde29dfc	-0.110652894
46	0x3e2091ac	0.1568057
47	0xbf82576f	-1.0182933
48	0xbe6fc22d	-0.23413916
49	0x3f652b4e	0.895192
50	0x3e103208	0.14081585
51	0x3e3b902e	0.18316719
52	0x3ec50304	0.38478863
53	0x3d95ecd6	0.073205635
54	0x40482d8c	3.12778
55	0xbf1adc24	-0.6049216
56	0x3ebaae7b	0.36461243
57	0xbf9f175d	-1.2429005
58	0xbd62ad0c	-0.05534081
59	0xbe5f0e1e	-0.21782729
60	0x3cc68a90	0.024235994
61	0x3e3b6cea	0.18303266
62	0xbdd199a4	-0.10234383
63	0x3f21593f	0.63026804
64	0x3f2558c5	0.64588577
65	0x3fa255b1	1.2682401
66	0x3f0a74d6	0.5408453
67	0x3f539868	0.8265443
68	0x3f59f1d8	0.8513465
69	0x3f672031	0.90283495
70	0x3f181ce9	0.59419113
71	0xbf4fab38	-0.81120634
72	0x3f06e9b0	0.5270033
73	0xbf7c7424	-0.98614717
74	0xbf16a24d	-0.588414
75	0xbf237d74	-0.638633
76	0xbdac4070	-0.08410728
77	0x3e36312e	0.17792198
78	0xbe55bca2	-0.20872739
79	0x3e2c3ce1	0.16820098
80	0xbe396320	-0.1810422
81	0x3e1907b1	0.1494434
82	0xbd2b5ea0	-0.04183829
83	0xbe85d23c	-0.2613696
84	0x3e2ef10d	0.17084141
85	0x3e378089	0.17920126
86	0x3d0a944b	0.03383283
87	0x3e1a4dcb	0.15068738
88	0xbe8c6f14	-0.27428496
89	0x3da1b0c7	0.07895046
90	0xbe68c977	-0.22733103
91	0xbd1e0c0d	-0.03858571
92	0xbe58bef4	-0.21166593
93	0x3dde276c	0.10847363
94	0x3e038650	0.12844205
95	0x3c0dac7c	0.0086470805
96	0x3e186ff2	0.14886454
97	0x3e0b37e6	0.13595542
98	0xbe344c9a	-0.17607346
99	0xbc78d8c0	-0.015188396
100	0x3dbd1078	0.09231657
101	0xbdb46218	-0.088077724
102	0xbd5d4c68	-0.054027945
103	0xbe6de41e	-0.23231551
104	0x3da579e8	0.080798924
105	0xbe33cfd8	-0.17559755
106	0xbd04e9d8	-0.032449573
107	0xbd999a8c	-0.075001806
108	0x3e11a5aa	0.14223352
109	0x3df0ed94	0.117640644
110	0x3bb08f80	0.0053882003
111	0xbd481b78	-0.04885432
112	0x3f05a4f1	0.52204806
113	0x3f987ac8	1.191247
114	0x3da1e8bc	0.07905719
115	0x3f54b2db	0.8308541
116	0x3f5021b7	0.81301445
117	0x3f70b485	0.9402545
118	0x3f1bdcbc	0.6088369
119	0xbd974164	-0.07385519
120	0x3f8d799b	1.1052736
121	0xbf6f90ed	-0.93580514
122	0xbf4d0e3d	-0.8009985
123	0xbf5567fd	-0.833618
124	0x3dd9cbb4	0.106345564
125	0x3e0ec952	0.13943985
126	0x3e6619fe	0.22470853
127	0x3e96c0f0	0.29444075
128	0x3effb543	0.4994298
129	0x3f80c8e2	1.0061305
130	0x3ecd83b5	0.40139547
131	0x3fcdc6f6	1.6076343
132	0x3f14b194	0.5808346
133	0x3f9acede	1.2094381
134	0x3f889b27	1.0672349
135	0xbf8ae298	-1.0850401
136	0xbf139eb3	-0.5766403
137	0xbe58f3a7	-0.21186696
138	0x3f328213	0.6972973
139	0x4000e166	2.0137572
140	0xbd2ec308	-0.042666465
141	0xbca6b4c0	-0.02034986
142	0x3c66d3a0	0.014088541
143	0xbf785300	-0.9700165
144	0x3ee039b5	0.43794027
145	0x3f46e245	0.7768901
146	0x3e8e91b1	0.2784553
147	0x3f35949b	0.7092988
148	0x3f72c943	0.9483835
149	0x3f361bb0	0.71136
150	0x3eea8465	0.45804134
151	0x3d0987df	0.033576842
152	0x3f58b599	0.84652096
153	0xbf25a4fd	-0.6470488
154	0xbf55418d	-0.8330315
155	0xbee586a7	-0.44829294
156	0xbc71a5c0	-0.014748991
157	0x3e771a74	0.24131185
158	0x3bf745c0	0.0075461566
159	0x3e6d95a0	0.23201609
160	0x3f91ef54	1.1401162
161	0x3f94176b	1.1569647
162	0x3fb89d27	1.4422959
163	0x3fc46d42	1.5345843
164	0x3faacbe3	1.3343471
165	0x3fb1983d	1.3874584
166	0x3fdcb3ff	1.724243
167	0x3f0ea5fc	0.5572202
168	0x3faa3c89	1.3299724
169	0xbe153fae	-0.14575073
170	0xbd8d3ad8	-0.06895989
171	0xbf5be2c0	-0.8589287
172	0xbddd4da8	-0.108058274
173	0xbe7087e4	-0.23489338
174	0x3cc8c220	0.024506629
175	0xbe54cc21	-0.20780994
176	0x3d7ba690	0.061438143
177	0x3dab9cf0	0.08379543
178	0xbe3d0886	-0.18460283
179	0x3d07ae50	0.03312522
180	0x3e02a638	0.1275872
181	0xbd829d64	-0.06377676
182	0xbe083fb0	-0.13305545
183	0xbe7db3d2	-0.24775627
184	0xbd839608	-0.064251006
185	0xbba1fb40	-0.0049432814
186	0x3d3296b8	0.043600768
187	0xbe13b936	-0.14426121
188	0x3d8940b4	0.06701794
189	0xbe17d50e	-0.14827368
190	0x3e52f3ec	0.20600861
191	0x3d18ae20	0.037275434
192	0x3f7bef71	0.98412234
193	0x3fec4605	1.8458868
194	0xbeaad7a4	-0.33367646
195	0x3f7c71e6	0.98611295
196	0x3fa64c1b	1.2991976
197	0x3f9639d5	1.1736399
198	0x3f4489d6	0.7677282
199	0x3f615b17	0.8802962
200	0x3fce933b	1.6138681
201	0x3d3c67db	0.04599748
202	0xbe61dd40	-0.22057056
203	0xbe750254	-0.2392667
204	0x3e35f758	0.17770135
205	0xbcb68ca0	-0.022283852
206	0xbe612362	-0.21986154
207	0x3feaaef1	1.8334638
208	0x3f0d3a5c	0.55167174
209	0x3f838200	1.0274048
210	0x3cf2b95b	0.0296294
211	0x3f809ca4	1.0047803
212	0x3f528e46	0.8224834
213	0x3f4aa421	0.7915669
214	0x3ed0efc0	0.40807915
215	0xbe89bc60	-0.2690153
216	0x3f5de500	0.8667755
217	0xbf3b758e	-0.7322625
218	0xbeca79b9	-0.39545992
219	0xbf143142	-0.5788766
220	0xbe59a960	-0.21256018
221	0x3e6a2936	0.22867283
222	0xbdb913e8	-0.09037
223	0xbe32065d	-0.1738524
224	0x3f215001	0.630127
225	0x3fb4a5ad	1.411306
226	0x3ebfae0d	0.37437478
227	0x3f88db1e	1.0691869
228	0x3f7b4374	0.981498
229	0x3f4a18cd	0.78944093
230	0x3f1683bf	0.5879478
231	0xbe83d98f	-0.25751922
232	0x3f1f8b75	0.6232217
233	0xbeb75207	-0.3580477
234	0xbeb2ba18	-0.34907603
235	0xbf38c245	-0.7217143
236	0xbc9c1cd0	-0.019056708
237	0x3e64c768	0.22341692
238	0x3e70c206	0.23511514
239	0x3e13f5b9	0.14449205
240	0x3e8aa30b	0.27077517
241	0xbf99a555	-1.200358
242	0x3f4551ff	0.7707824
243	0x3f3cbaf2	0.73722756
244	0x3e9f8505	0.31156173
245	0x3de94353	0.11389794
246	0x3b60a0ce	0.0034275535
247	0xbfa8169d	-1.3131901
248	0xbea80c5d	-0.32821932
249	0x3f8b4413	1.088015
250	0x3f81980c	1.0124526
251	0x3ff725ed	1.9308449
252	0xbd10d428	-0.035358578
253	0x3cc0adf0	0.02352044
254	0xbdfd7dbc	-0.123774976
255	0xbfea32fd	-1.829681

fc1.bias f4 [16]
0	0x3e353271	0.17695023
1	0xbec1f0e5	-0.378791
2	0xbfb0a0c6	-1.3799064
3	0x3ef0ce8d	0.47032586
4	0x3e28b534	0.16475374
5	0xbe62f6cf	-0.22164463
6	0x3dca5ad8	0.09880608
7	0x3e3dde81	0.1854191
8	0xbf65daab	-0.89786786
9	0x3e090314	0.1338008
10	0xbed5b87a	-0.41742307
11	0xbcc00480	-0.023439646
12	0x3ff4e41b	1.9132112
13	0x3e3f5c88	0.18687642
14	0x3e70df27	0.23522626
15	0xbfc0f8a9	-1.5075885

fc2.weight f4 [12, 16]
0	0x3f25941c	0.6467912
1	0xbddf521c	-0.10904333
2	0x401c7d8c	2.4451628
3	0xbfcd4356	-1.6036174
4	0x3da6079a	0.08106919
5	0xbe0cd96e	-0.13754818
6	0xbe350926	-0.17679271
7	0xbbf0e35a	-0.007351321
8	0x401a3baa	2.4098916
9	0xbd1241f2	-0.03570742
10	0x4050b40e	3.2609897
11	0x3e4192a4	0.18903595
12	0xbff1881e	-1.8869665
13	0x3f1db363	0.6160185
14	0x3e8d6e91	0.27623418
15	0x3fb292fc	1.3951106
16	0x3f5375cc	0.8260162
17	0xbf6d8b49	-0.9279066
18	0x3e370a32	0.17874983
19	0x3e265338	0.16242683
20	0x3f2a3dbe	0.6650046
21	0xbd3514c4	-0.044209257
22	0xbc941690	-0.018077165
23	0x3f49e2d4	0.7886174
24	0x3e73af28	0.23797286
25	0x3f6c99e5	0.92422324
26	0x3f3a5588	0.7278676
27	0x3d08c000	0.03338623
28	0xbcbf32ea	-0.023339707
29	0x3f37e95e	0.71840465
30	0x3f1ce7ad	0.6129101
31	0xbf2fa90d	-0.68617326
32	0x3ef38052	0.47558838
33	0xbfa18a98	-1.262042
34	0x3f4a373e	0.7899054
35	0x4087137f	4.22113
36	0x3f15f255	0.58572894
37	0x3d0ac3cd	0.033878136
38	0xbb765700	-0.0037588477
39	0x3ecea304	0.40358746
40	0x3f909fd9	1.1298782
41	0x3edb2b1e	0.42806333
42	0xbe2dca97	-0.16971813
43	0x3de718d8	0.112840354
44	0x3ede41dd	0.43409625
45	0x3c36ca4a	0.011156628
46	0xbf00a0da	-0.5024544
47	0x3e081f7b	0.13293259
48	0x3ed9c53d	0.42533293
49	0xbf8dddc7	-1.1083306
50	0xbf05a69c	-0.5220735
51	0x3fd3ce08	1.6547251
52	0x3f2e589f	0.68103975
53	0xbd24693f	-0.040139433
54	0x3d84476c	0.06458935
55	0x3f8fad91	1.1224843
56	0xbd9a4b8f	-0.07533943
57	0x3effe1da	0.49977
58	0x3f1069c0	0.5641136
59	0xbe31878a	-0.1733686
60	0x3e40082a	0.18753114
61	0x3f06dee0	0.5268383
62	0x3f62e3f1	0.8862906
63	0xbfd90fa1	-1.6957895
64	0xbdf468bd	-0.1193404
65	0x3f4428a0	0.7662449
66	0x3cae73ee	0.021295514
67	0xbe2ff546	-0.17183408
68	0xbf172253	-0.5903675
69	0x3e5cc870	0.21560836
70	0x3cd86c60	0.026418865
71	0xbe4dc95b	-0.20096342
72	0x3ea1e961	0.31623366
73	0x3dabaac5	0.08382181
74	0xbe8debd3	-0.27718982
75	0xbd864590	-0.06556237
76	0x3f9818fa	1.1882622
77	0xbea9c919	-0.33161238
78	0x3d1c840f	0.03821188
79	0x3b7257af	0.0036978533
80	0xbdc3ae28	-0.09554702
81	0xbd72bf1e	-0.059264295
82	0xbdf3fe73	-0.11913767
83	0x3e57d5ae	0.21077606
84	0x3e286781	0.16445734
85	0x3e4d3044	0.20037943
86	0xbdd075c0	-0.10178709
87	0xbe7442ca	-0.23853603
88	0x3d16c5da	0.03680978
89	0xbe49c992	-0.19705799
90	0x3de0589b	0.109544
91	0xbdf9b678	-0.12193006
92	0xbe236b91	-0.15959002
93	0x3d8e7a52	0.069569245
94	0xbe68abfd	-0.22721858
95	0xbdf7eedb	-0.12106105
96	0x3f426deb	0.7594897
97	0xbf727a62	-0.9471799
98	0xbe9f6e54	-0.3113886
99	0x3fd37e0d	1.6522843
100	0xbc81864d	-0.01581111
101	0x3d29c047	0.041443136
102	0xbe0be9f0	-0.13663459
103	0x3fcb4455	1.5880228
104	0xbed98da9	-0.4249089
105	0x3f616ddd	0.88058263
106	0x3f8ad68b	1.0846723
107	0x3cdc3b10	0.026883632
108	0x3e08d4c9	0.13362421
109	0x3f331fc8	0.6997037
110	0x3f5c1a6f	0.85977834
111	0xbfe3b614	-1.7789941
112	0x3f51e1d3	0.81985205
113	0xbfb31e8c	-1.3993697
114	0x3e3d589b	0.18490832
115	0x3f7e8428	0.99420404
116	0x3fba0321	1.4532205
117	0xbe8198fb	-0.25312027
118	0xbdbb54a0	-0.09147
119	0x3f9c2002	1.2197268
120	0x3ecb295c	0.39679992
121	0x3ee2eb51	0.44320157
122	0x3f957702	1.1676943
123	0x3e3a1b1e	0.18174407
124	0x3ed54f1c	0.41661918
125	0x3f0c306e	0.547614
126	0x3f1b75a6	0.6072639
127	0xbf83cdba	-1.0297158
128	0x3f8be4b7	1.0929173
129	0xbf85063f	-1.0392531
130	0x3eb22a62	0.3479796
131	0x3fa7f716	1.312228
132	0x3fa937b5	1.3220125
133	0xbe04150e	-0.12898657
134	0xbe6d563e	-0.2317743
135	0x3faa9197	1.332568
136	0xbd95fc2d	-0.07323489
137	0x3f254cba	0.645702
138	0x402e17e2	2.7202077
139	0x3e6fbdee	0.23412296
140	0x3f90a376	1.1299884
141	0x3f74c0a9	0.95606476
142	0x3f1207c6	0.5704311
143	0xbec94357	-0.3930919
144	0x3e8f2ba0	0.2796297
145	0xbeec6666	-0.46171874
146	0x3de48531	0.11158217
147	0xbe80eb1d	-0.25179377
148	0xbe64d57c	-0.22347063
149	0xbe0924d3	-0.13392954
150	0xbd723738	-0.059134692
151	0xbd3ecfc1	-0.04658485
152	0xbcc9f8b7	-0.02465473
153	0x3de2628b	0.11053952
154	0x3e2fe348	0.17176545
155	0x3e14f0b8	0.14544952
156	0xbdfcc865	-0.1234291
157	0x3d89b00e	0.06723033
158	0x3d0cf633	0.03441448
159	0xbed37f38	-0.41307998
160	0x3f84371c	1.0329318
161	0xbf69253f	-0.9107246
162	0x3c3aedaf	0.011409207
163	0xbec9862a	-0.39360172
164	0x400cf74c	2.2025938
165	0xbe5969fc	-0.21231836
166	0xbe101ea0	-0.14074183
167	0x3f95c4ac	1.1700644
168	0xbe9ad7ea	-0.30242854
169	0x3db8dcb0	0.09026468
170	0x3e8a855f	0.2705488
171	0xbd920c50	-0.07131255
172	0xbe1cc330	-0.15308833
173	0x3f498821	0.7872334
174	0x3f32fcad	0.699168
175	0x3eaea513	0.34110317
176	0x3f8ceabe	1.1009138
177	0xbefeebc4	-0.4978925
178	0x3d439086	0.04774525
179	0xbf05cb45	-0.5226329
180	0x3fb131e7	1.3843354
181	0xbd30ccdf	-0.04316413
182	0xbd554f70	-0.05207771
183	0x3fa376a6	1.2770584
184	0xbedb9b8f	-0.4289212
185	0x3e2de4d6	0.16981825
186	0x3f1abcd1	0.6044436
187	0x3dfefa8c	0.12450132
188	0xbcd70a1d	-0.02624994
189	0x3f893635	1.0719668
190	0x3f364e07	0.7121281
191	0xbf55e567	-0.83553165

fc2.bias f4 [12]
0	0xbf548419	-0.83014065
1	0xbdd2163f	-0.10258149
2	0x3fb16ddf	1.3861655
3	0xbf0303b2	-0.51177514
4	0x3f9988b5	1.1994845
5	0x3db9ff44	0.09081891
6	0xbe901200	-0.28138733
7	0xbe10c41d	-0.14137311
8	0xbf04452a	-0.51668036
9	0xbd1f8952	-0.03894932
10	0xbf62e765	-0.8863433
11	0xbf090389	-0.5352102

fc3.weight f4 [10, 12]
0	0x3f33fd30	0.7030821
1	0xbf1c337c	-0.6101606
2	0x3f8a32e9	1.0796787
3	0x3e36f5ea	0.17867246
4	0x3e0edc21	0.1395116
5	0xbe5df836	-0.21676716
6	0x3f2f7d41	0.685505
7	0x3f50dc85	0.81586486
8	0x3faa5126	1.3306015
9	0xbcbad644	-0.022807248
10	0xbf2cc5b1	-0.67489153
11	0x3d1181de	0.03552424
12	0x3f4bb63d	0.7957495
13	0x3eaad537	0.33365795
14	0x3f5f9bc8	0.8734708
15	0x3f142ffc	0.5788572
16	0xbe12ed35	-0.143483
17	0xbe8c14ae	-0.27359527
18	0x3e8ea818	0.2786262
19	0x3f56e969	0.83949906
20	0x3f7a3f75	0.9775308
21	0x3f04d8b4	0.5189316
22	0x3c80c66f	0.01571962
23	0x3e173405	0.14765938
24	0x3f569e3a	0.83835185
25	0x3f982f25	1.1889387
26	0x3f807ca7	1.0038041
27	0x3f8c8dec	1.0980811
28	0xbf6a7957	-0.915914
29	0x3e4cd6fa	0.20003882
30	0x3f6658ce	0.89979255
31	0x3fac7fd1	1.3476506
32	0x3f0141bb	0.5049092
33	0x3ddf54eb	0.10904869
34	0xbf150085	-0.5820392
35	0x3de0a1df	0.109683745
36	0x3f1dd134	0.61647344
37	0xbce8b02e	-0.028404322
38	0x3f9ea7ef	1.2394999
39	0xbe17828c	-0.14795893
40	0x3eab347b	0.33438477
41	0x3d89dea4	0.067319185
42	0x3f170a79	0.59000355
43	0x3ee9e347	0.4568121
44	0x3fa79d60	1.3094902
45	0x3e90cbb5	0.28280416
46	0xbedb281f	-0.42804047
47	0x3eb24b79	0.34823206
48	0x3f14cea2	0.58127797
49	0xbf2f259d	-0.6841677
50	0x3fc4ddad	1.538015
51	0xbd492beb	-0.04911415
52	0x3f0c85b4	0.54891515
53	0xbd342788	-0.043983012
54	0x3f4890ed	0.7834614
55	0x3e84db4f	0.2594857
56	0x3fb4135b	1.4068407
57	0x3dcb6677	0.09931653
58	0xbef61fe9	-0.4807122
59	0x3e6422db	0.22278921
60	0x3f004739	0.5010868
61	0xbf982ec7	-1.1889275
62	0x3fc3aa0f	1.5286273
63	0xbe8f0371	-0.27932313
64	0x3f4709c4	0.77749276
65	0xbe56f2e0	-0.20991087
66	0x3f62ae5b	0.88547295
67	0x3f78ca44	0.9718363
68	0x3fcb3542	1.5875628
69	0x3e5f6b57	0.2181829
70	0xbfbc6487	-1.4718179
71	0xbed33109	-0.41248348
72	0x3fba611b	1.4560884
73	0x3f8a7b46	1.081887
74	0xbfe4a809	-1.786378
75	0x3fe133d1	1.7593938
76	0x3de7e807	0.113235526
77	0xbda43816	-0.0801851
78	0x3f6d9727	0.92808765
79	0x3f2823d4	0.6567967
80	0x3f871415	1.0553004
81	0xbe93ba08	-0.28852868
82	0x3c5c1307	0.013432271
83	0xbdfee3f5	-0.12445823
84	0x3f7ca1a0	0.9868412
85	0x3dfcaf06	0.123380706
86	0x3fb5b223	1.4194988
87	0x3d036f44	0.032088533
88	0xbf8bee26	-1.0932052
89	0xbe21cb1b	-0.15800135
90	0xbe02e071	-0.1278093
91	0x3f1eae27	0.61984485
92	0x3fab0b3a	1.3362801
93	0xbe9125fc	-0.28349292
94	0x3fffbd16	1.997958
95	0x3f447bc9	0.7675138
96	0x3f78f05c	0.9724176
97	0x3fb011d5	1.3755442
98	0x3fa5ecf1	1.2962934
99	0x3f15bba4	0.5848944
100	0xbf464df1	-0.7746268
101	0x3e86dbb8	0.26339507
102	0x3ec460bc	0.38355052
103	0x3eb6d9ea	0.3571313
104	0x3f49124f	0.7854356
105	0x3e784a9e	0.24247214
106	0x3ea82454	0.32840216
107	0x3f4395a3	0.764002
108	0x3f17bd6b	0.59273404
109	0xbf21bd36	-0.6317934
110	0x3f9de594	1.2335687
111	0x3e39d117	0.18146168
112	0x3eca3c9a	0.3949936
113	0xbe0b0254	-0.13575107
114	0x3f20274d	0.6255997
115	0x3edce1ff	0.4314117
116	0x3fce2795	1.610583
117	0x3eb3dae1	0.3512793
118	0xbf4741c7	-0.77834743
119	0xbd77b7ea	-0.06047813

fc3.bias f4 [10]
0	0x400ff5a2	2.2493672
1	0xbec352b2	-0.3814903
2	0xc0587dcc	-3.382678
3	0x4071f0aa	3.780314
4	0x408c6a65	4.3879876
5	0x407d3a3b	3.956679
6	0xc02406df	-2.5629194
7	0xc01fee3c	-2.4989157
8	0xc09fa1d3	-4.988504
9	0x4067803f	3.6172025
