dqn_conservative.pth (torch, 4639 bytes, 6 tensors)

fc1.weight f4 [16, 16]
000000 aa b8 5b 3f 7f 89 42 3f ea e8 14 3f 64 9c 67 3f
       0.8582865 0.7599105 0.581679 0.9047301
000010 12 45 82 3f 3c ed 45 3f 20 bb 36 be 06 d5 3d bf
       1.0177329 0.77315116 -0.1784482 -0.7415317
000020 0c a0 4c 3f 2f d7 b9 3e 76 47 4d 3f 6c 45 19 bd
       0.7993171 0.36296985 0.80187166 -0.03741972
000030 9a 98 54 be 24 c6 98 3d 38 3d 3a be f0 da 67 bf
       -0.20761338 0.07459667 -0.18187416 -0.9056845
000040 f3 61 cc 3e 2a 63 6e 3e 51 81 bf 3c 47 71 be 3e
       0.3991848 0.23280016 0.023377093 0.371958
000050 fb af 43 3f 44 34 61 3f 29 a8 84 be db e8 88 3f
       0.764404 0.87970376 -0.25909546 1.0696062
000060 a5 ab 3e be 4f 9c fb 3e c4 85 d1 be 62 21 c7 3c
       -0.18620165 0.49142691 -0.40922368 0.02430791
000070 84 48 00 be b0 7d be 3d 6c 8d 76 be de 13 b7 3f
       -0.12527663 0.09301317 -0.24077386 1.4302938
000080 95 ef 38 3f 06 07 23 3f d1 d4 5c 3f f9 e5 44 3f
       0.72240573 0.6368259 0.8626223 0.7691341
000090 70 25 89 3f 2d cd a3 3f 61 18 fe 3e ce a6 b5 bf
       1.071455 1.279699 0.49627975 -1.419153
0000a0 32 8d 2a 3f 4a 8c 0f 3e a2 d9 49 3f 09 9a 56 be
       0.66621697 0.1401836 0.78847706 -0.20957197
0000b0 86 10 6a be 60 d2 62 3d a0 b6 83 3c 29 c5 dd be
       -0.22857866 0.05537641 0.016078293 -0.43314484
0000c0 00 20 00 3a 90 e6 ad bc dc 3c dd 3d aa 5b 78 be
       0.0004887581 -0.021228105 0.10802624 -0.24253717
0000d0 3e 6d 00 3e 0a ee 73 3e a0 51 6f bd 60 6f 54 bc
       0.12541673 0.23821273 -0.058427453 -0.012966007
0000e0 08 df 64 3d 94 e2 6b be 7a 01 2f be 00 02 73 3c
       0.05587676 -0.23035651 -0.17090407 0.01483202
0000f0 e0 4a 45 3d 2c b6 40 be 36 a3 7f be 06 03 47 3e
       0.04816711 -0.18819493 -0.24964604 0.19434747
000100 c3 ff 33 3f e4 38 07 3f 53 0a f4 3e d3 ea 82 3f
       0.70312136 0.52821183 0.47664127 1.0227913
000110 3e 61 9a 3f 05 bc ee 3f b3 76 04 3e 6e 01 13 3f
       1.2060926 1.8651129 0.12935905 0.57424057
000120 fa 2a 03 be 91 68 e8 3e 83 17 f8 be 2c d4 83 3e
       -0.12809363 0.45392278 -0.48455438 0.25747812
000130 78 2c 41 be 8a 19 39 3e a6 1d 72 be 67 65 b9 3f
       -0.1886462 0.18076149 -0.23644122 1.448407
000140 80 c6 b2 be 60 b6 94 be e8 0b a6 be 35 5a 50 bd
       -0.34917068 -0.2904539 -0.3243096 -0.050867278
000150 03 4d 87 3d 04 46 7a 3e 03 bf 50 3f 7d 2d f2 bf
       0.06606486 0.24440771 0.8154146 -1.8920132
000160 5b ee 01 40 94 02 98 be b7 bd 30 3e aa bd 1c bf
       2.030173 -0.29689467 0.1725987 -0.61226904
000170 70 91 46 bd 8a 47 5f be 20 89 05 3d 45 a0 cf 3f
       -0.048478544 -0.21804634 0.032601476 1.6220785
000180 8f d7 35 bf 65 5e 26 bf a7 b0 27 bf dc 9d d2 be
       -0.7103204 -0.64987785 -0.65503925 -0.41136062
000190 8d 50 78 be 64 f1 a5 3e 32 58 91 bf 4e 54 bf 3e
       -0.24249478 0.3241073 -1.135504 0.37369007
0001a0 eb 9c af 3f 9f 25 53 bd 27 f5 26 be 94 4a bc be
       1.3719763 -0.05154955 -0.16304456 -0.3677565
0001b0 00 e1 12 3b 6c 24 9f 3d 84 0b 77 3e f1 11 b2 3f
       0.0022411942 0.07770619 0.24125487 1.3911725
0001c0 55 1b ae be 4e ea 96 be 91 a5 ea be f0 15 68 be
       -0.34005228 -0.29475635 -0.45829442 -0.22664618
0001d0 d4 95 80 3e 1e 1e dd 3e 7f 77 6f bf 8b 28 81 3f
       0.2511431 0.4318704 -0.9354171 1.0090498
0001e0 e6 6f 45 3f 44 63 2a 3f b9 66 c7 be eb 67 d0 bd
       0.7712387 0.6655772 -0.3894556 -0.10176071
0001f0 e0 7d ab 3d 40 eb 93 3d 58 dd 1a be 28 c1 b4 3f
       0.08373618 0.07222605 -0.15123498 1.4121447
000200 39 c2 ab 3c 7e ab 97 3c b8 8b 15 3e 2a 00 56 be
       0.020966636 0.018514391 0.1460408 -0.208985
000210 d2 1d 5c bd 0a e9 49 bd af 93 45 3e f5 1c 8c 3c
       -0.053739376 -0.04929451 0.19294618 0.017103652
000220 c6 5f f1 3b ec 25 9a 3d 2e 20 80 be 62 aa d5 bd
       0.0073661534 0.07526764 -0.2502455 -0.104328886
000230 18 c3 48 be a8 53 c1 3d e8 fc 7b 3e db 04 fc 3c
       -0.19605672 0.09439784 0.24608195 0.030764034
000240 c3 c8 47 3e 67 f3 89 3e 74 8d 7a 3e e7 c1 36 3f
       0.19510178 0.26943514 0.24468023 0.7138962
000250 c2 40 7a 3f c5 c0 d5 3f 76 de 7a 3f a7 0c a3 3f
       0.9775506 1.6699454 0.979957 1.2738236
000260 67 45 0b 3f 8e 8f 86 bd b9 58 3e bf ec cc f2 3e
       0.54402775 -0.0657035 -0.7435413 0.47421968
000270 3c d8 c3 3d 6a 37 01 3e 92 88 40 3e 90 4a 52 3e
       0.09562728 0.12618795 0.18802097 0.20536256
000280 36 79 85 3d 02 01 bd 3c 8a f7 0b 3e 25 ef 2e be
       0.0651726 0.02307177 0.13668647 -0.17083414
000290 21 5e 3e 3e 25 20 34 bd 72 46 3d bd 01 7a 09 be
       0.18590595 -0.043975968 -0.04620976 -0.13425447
0002a0 9c e4 45 be de 45 1c bd a9 cf a0 bd 81 01 95 3c
       -0.19325489 -0.038152568 -0.07852108 0.018189194
0002b0 90 4c f6 3d c0 05 e6 bd b0 90 89 bd 7d ed a8 bd
       0.12026322 -0.112315655 -0.0671705 -0.08248422
0002c0 09 e2 85 be 65 90 56 3d 36 e9 2a 3f 55 dd 9c 3e
       -0.26149014 0.0523838 0.667621 0.30637613
0002d0 09 54 1a 3f ad 27 b1 3f 39 42 7e 3f 30 f2 13 3f
       0.6028448 1.3840233 0.993198 0.57791424
0002e0 21 5d 9a be b3 f6 22 bf 57 8f 2f 3e 80 fc 1f 3e
       -0.30149177 -0.63657683 0.17144524 0.15623665
0002f0 d2 60 25 be a8 50 1d be c8 de 17 bd 40 e1 fb 3f
       -0.16150215 -0.15362799 -0.037077695 1.9678116
000300 41 5c c3 bc 85 9d 12 3e fe 3c 31 be 92 69 9d be
       -0.023847701 0.14317901 -0.17308423 -0.30744606
000310 c7 e5 5a be 3a cd 9b 3d 8f a2 af be 8e d5 a8 3f
       -0.21376716 0.07607503 -0.3430371 1.3190172
000320 b8 82 d4 be 3c 19 01 3f 10 d9 39 be 0e a3 b2 be
       -0.4150598 0.5042913 -0.18149209 -0.34890026
000330 f2 1b 19 3e e0 64 80 bc 96 48 7e be ef 6e ad 3f
       0.14952067 -0.015673101 -0.24832377 1.3549479
000340 f0 18 cb bd 0c 25 d1 bd 98 c6 f8 bd 88 1a 35 be
       -0.09916866 -0.10212144 -0.12147254 -0.17685902
000350 2c ab a6 bd 00 0e ca 3c 3e 13 3d 3e f2 2b 69 3e
       -0.08138117 0.024664879 0.18464372 0.2277067
000360 14 3f 4c be 48 2c 12 bd 38 53 6b be 48 3b 5f 3d
       -0.19945937 -0.03568676 -0.22980964 0.054499894
000370 58 42 9d bd da 3b 6a 3e 76 59 31 3e 10 b2 60 be
       -0.0767867 0.22874394 0.17319283 -0.21942925
000380 de 37 d7 3d e7 ed 4c 3e a5 11 80 3f b8 82 38 3f
       0.10508703 0.20012628 1.0005385 0.7207446
000390 e6 d8 99 3f 46 ea 01 40 1a 70 9d 3f f6 64 02 3f
       1.2019317 2.029924 1.2299836 0.50935304
0003a0 70 e1 01 3e 42 79 3e bf 48 8d d9 3d 84 5b a3 3e
       0.12683654 -0.74403775 0.106226504 0.31905758
0003b0 e8 ef 50 bd 24 b9 0e be a2 90 7d be fa 51 cc 3f
       -0.051010042 -0.13937813 -0.24762204 1.5962517
0003c0 34 bf f4 3e 3a 88 0e 3f 9f 6c 26 3f d6 89 8c 3f
       0.47802126 0.55676615 0.6500949 1.0979564
0003d0 66 93 b3 3f 60 54 fe 3f ce 27 ad 3f b6 d6 c5 3f
       1.4029357 1.9869499 1.3527772 1.545615
0003e0 a9 a9 85 be 11 13 2f 3e d5 30 9c 3d 22 f4 30 3f
       -0.26106003 0.17097117 0.076265015 0.6912252
0003f0 58 e2 d8 3d 02 26 2d be 34 02 1d 3e d2 37 2e bb
       0.10590047 -0.1690903 0.15332872 -0.0026583564

fc1.bias f4 [16]
000000 85 c9 50 bf cf 30 9d 3f 59 1d 52 bf c4 71 3f be
       -0.81557494 1.228052 -0.8207603 -0.18695742
000010 c7 51 c0 3f 22 01 b7 3f 3e 1f b2 3f c2 4d af 3f
       1.5024956 1.4297221 1.3915784 1.3695605
000020 9c c5 3d be 87 70 76 3e 7e 50 96 bd 6d c7 04 40
       -0.18532413 0.24066363 -0.073395714 2.074672
000030 56 a1 a4 3f 9a df 1c 3e 41 a7 b0 3f 3b 22 1a 3d
       1.2861736 0.15319672 1.3801042 0.0376303

fc2.weight f4 [12, 16]
000000 2a 73 92 bf ab c6 64 3f 59 c6 1b c0 04 6d 09 be
       -1.1441395 0.89365643 -2.4339812 -0.13420492
000010 4d dd 3b 3f aa 06 60 c0 d4 20 11 3f aa 97 65 3f
       0.73384553 -3.5004067 0.56690717 0.89684546
000020 2a 8a 55 3e 87 32 01 3e 8a ff 30 be 9c 2a 00 3f
       0.20853487 0.12616931 -0.1728498 0.50065017
000030 65 bc 87 3f 34 8c dd bd a6 1d 59 3d 5a 01 4e 3e
       1.0604368 -0.10817757 0.05300679 0.20117703
000040 6f 51 aa bd fb 5f 7d be b1 5f dd bc 8c 5a c6 bd
       -0.083163135 -0.24743645 -0.027023168 -0.09685239
000050 b5 91 15 be f8 a2 8f bd c7 6f b5 bd 1c 5c ea 3d
       -0.14606364 -0.07013506 -0.088592105 0.1144335
000060 6e d0 fb 3a 11 a5 81 be 88 84 f8 bd 31 46 b9 3d
       0.0019211897 -0.25321248 -0.12134653 0.09046591
000070 de dc 41 3e 48 c5 df 3d 9a a7 d4 3b f1 b0 93 be
       0.1893191 0.109263 0.006489706 -0.28845933
000080 63 8a fd bf a9 8e 3e 3e 4b b6 2f c0 b4 f3 e3 bd
       -1.9807857 0.18609108 -2.7455013 -0.11130467
000090 e8 54 3d 3e 2f be ad 3d c8 71 f2 3e b0 a9 68 bc
       0.1848942 0.0848354 0.47352433 -0.014200613
0000a0 77 f5 e9 bd 84 8a 4c 3f 2b ca af 3d 1c 98 80 3f
       -0.11423772 0.7989886 0.08583482 1.004642
0000b0 2d 41 d0 3e 84 97 f1 3d 1f 14 3b 3f 5a f3 74 3e
       0.40674725 0.117964774 0.7307758 0.23920956
0000c0 31 dd 78 3e a9 5f e5 3f 2c b6 a0 3c 48 36 2c 3d
       0.24303128 1.7919818 0.019618116 0.042043954
0000d0 8e 83 95 3f 61 93 07 40 fb 3a 1c 40 da 0d d7 3f
       1.1680772 2.1183703 2.4411 1.6801102
0000e0 42 34 74 be 99 0a 85 3e 20 55 8c be 36 c5 f7 3f
       -0.2384806 0.25984648 -0.27408695 1.9357059
0000f0 6e 7a d4 3f 5a 05 6e 3e 65 97 c0 3f 80 65 2e 3f
       1.6599863 0.23244229 1.5046202 0.68123627
000100 20 80 44 bf 0e 8f 43 3f e5 5f 30 bf 1e f7 0f 3e
       -0.76758003 0.7639016 -0.68896323 0.14059111
000110 59 7f cc 3e d0 bb 31 40 17 43 90 3f 64 90 16 3f
       0.3994091 2.7770882 1.1270474 0.5881407
000120 0d fb 7a bc 95 b0 69 bf 5b ce 81 3d 40 3a 96 3f
       -0.015318644 -0.9128507 0.06338187 1.1736526
000130 05 8b 5e 3f 24 97 38 be 3b b2 30 3f 64 fc 2e bf
       0.86930877 -0.18026406 0.6902196 -0.6835387
000140 74 76 2c be 42 25 3e bf d3 89 cf 3e 46 d7 0d 3e
       -0.16842061 -0.742756 0.4053484 0.13851652
000150 93 65 ad be e4 6c 06 3f 48 c5 19 c0 af 02 bb bf
       -0.33866557 0.52509904 -2.402666 -1.4610194
000160 4d fb 74 bb 3a 24 04 3f b2 31 11 3e a3 88 d1 3f
       -0.0037381232 0.5161778 0.14179114 1.6369823
000170 19 76 52 bf 9e 95 47 3e 73 07 c6 3f 53 38 e3 3e
       -0.8221145 0.19490668 1.5471023 0.4437891
000180 18 59 87 3d e7 ec aa 3c 0b cb 4f be 00 ec ec 39
       0.0660879 0.020864917 -0.20292298 0.0004518926
000190 6c 30 a8 3d 63 b3 45 bb 26 c9 5d be e2 a1 1d be
       0.08212361 -0.0030166737 -0.21658763 -0.15393785
0001a0 ed 0d e9 bd a7 33 ce bd 5c 2b 37 be c9 1c 06 be
       -0.11379609 -0.10068446 -0.17887634 -0.13096918
0001b0 62 d6 c5 3d 64 47 16 3e 7d 3c 19 3e 68 05 e9 bd
       0.09660031 0.14675671 0.1496448 -0.11377984
0001c0 5a 06 14 bf ac d5 98 3f e7 21 9e bf 16 82 74 be
       -0.5782219 1.1940207 -1.2354096 -0.23877749
0001d0 d9 a8 a4 3f 49 bd ee bd 4a 28 71 3f 6a 0d 81 3f
       1.2864028 -0.11657197 0.942021 1.0082219
0001e0 51 87 ed 3d c1 0b 3b 40 d5 b7 e9 3c 7d 90 7a 3f
       0.11598075 2.9225924 0.02853004 0.9787672
0001f0 d4 78 97 be ea 25 0b 3e 02 28 b2 3f d7 79 8e 3f
       -0.29584372 0.13588682 1.391846 1.1130933
000200 f4 2c a9 bf 2a 55 45 3f 55 1c 57 c0 28 24 08 3d
       -1.3216844 0.77083075 -3.3611042 0.033237606
000210 3e 57 fe 3d 50 d8 8f bf 2d 4b c0 3d 7e 6a 33 3f
       0.12418984 -1.1237888 0.09389339 0.7008437
000220 4f dc 9e bd 5f 35 51 3e 77 5a 6d be 33 57 82 3e
       -0.07756864 0.20430516 -0.23179041 0.25457153
000230 95 7c 43 3f c0 33 52 bc 4d c2 03 be a0 52 be 3e
       0.7636197 -0.012829721 -0.12867089 0.37172413
000240 fc 61 76 be 9a c6 4b be 35 04 51 3d ec be 62 be
       -0.24060816 -0.19899979 0.051029403 -0.22143143
000250 31 46 fc 3d a6 c3 87 be e0 08 ee bd a7 ef 59 be
       0.123180754 -0.26516455 -0.116227865 -0.21282826
000260 fb 9e 2e bd 6b 27 58 bd 0a e2 3a be a5 98 e1 bd
       -0.042632084 -0.052771967 -0.1825029 -0.11015443
000270 fd e9 73 3d 54 eb a1 3d 0e 30 8d 3d 1d 8f a1 bd
       0.05954932 0.079062134 0.06893931 -0.07888625
000280 aa 6a 20 be d0 23 28 be 44 b9 7e be 5c dd be bd
       -0.15665689 -0.16419911 -0.2487536 -0.09319565
000290 b8 d1 3b 3e 14 65 c6 bd 24 36 fb 3d 96 9a 6e be
       0.1834172 -0.09687248 0.12266186 -0.23301157
0002a0 0c 9e bc 3d d0 62 3b 3d dc 6e 15 3e 72 39 31 3e
       0.092098325 0.04574853 0.14593071 0.1730707
0002b0 8c 13 90 bd 78 5b 99 3d 5e 38 0f be 54 bd 38 be
       -0.07034978 0.074881494 -0.13986346 -0.18040973
0002c0 f2 fb 15 be 52 80 c9 bc cc 5c 04 be f4 80 73 be
       -0.14646891 -0.02459732 -0.12926024 -0.2377966
0002d0 2a ba a6 be 03 9a 4f 40 a9 49 2b 40 fe 87 a0 3f
       -0.32563907 3.2437751 2.6763709 1.2541502
0002e0 b4 12 da bd 60 f3 8d bf fd b9 0a 3e 50 e1 01 3b
       -0.106480986 -1.1089897 0.13547511 0.0019818135
0002f0 6e 1b e6 3d 90 a8 9d 3d 81 e3 a5 be 98 9d 96 bf
       0.112357005 0.07698166 -0.32400134 -1.1766844

fc2.bias f4 [12]
000000 47 ce 79 3f e3 9d 98 3c 5c b3 7a bd 66 79 f1 3f
       0.9758038 0.018629974 -0.061206207 1.8865173
000010 dd ef c8 3f 0e 5b 64 3e db 29 7f bd 8d 03 e8 3e
       1.56982 0.2230036 -0.062295776 0.4531521
000020 85 35 06 3e fa 21 4c bc 80 88 cf bc 14 a0 77 3f
       0.13106354 -0.0124592725 -0.025333643 0.96728635

fc3.weight f4 [10, 12]
000000 43 83 88 3f 54 1c 9b 3d ed 7c 20 3f 0a 8b 69 3f
       1.0665058 0.075737625 0.6269062 0.9122778
000010 b8 10 52 3f 5e 78 22 3f b5 6d fc bb 2c 47 0c 3f
       0.8205676 0.63464916 -0.007703508 0.547961
000020 4a 5f 60 3f 49 b9 71 3e 84 a8 50 be 17 fd 87 3f
       0.876454 0.23605837 -0.20376784 1.0624112
000030 06 69 db 3e 41 47 8c be 3b e6 be 3f 6b f9 21 3f
       0.42853564 -0.27398112 1.4914011 0.63271207
000040 1d 3c 49 3f 57 28 76 3e af e9 56 3d 3a 8b 37 3f
       0.7860735 0.24038826 0.05246895 0.7169682
000050 9d cf 4c 3f 9c cc 5f be 48 b8 71 3e 7d 96 65 3f
       0.8000429 -0.21855396 0.23605454 0.8968275
000060 3a 84 4b bd ef b1 6e be 71 2d 52 40 ba f3 54 bd
       -0.049686648 -0.23310064 3.2840235 -0.05199025
000070 75 4d 9f 3f ef 89 66 bf 49 2c 0c 3e 1c af 64 3f
       1.2445513 -0.9005422 0.13688768 0.89329696
000080 b3 e6 04 3f 45 5b 7f be 64 48 86 3d c1 34 bd 3f
       0.5191452 -0.2493716 0.06556776 1.4781724
000090 89 fa 84 3f 16 ad 4d be 17 d1 7b 3e d4 69 62 3f
       1.0388957 -0.20085558 0.2459148 0.8844273
0000a0 0a 1f a1 3f 67 50 dd 3e ee 83 35 be 6e 4d 2b 3f
       1.2587597 0.43225405 -0.17726108 0.66915023
0000b0 39 8b b7 3f 2d 03 28 be d8 e3 7e 3e 37 50 53 3f
       1.4339362 -0.16407461 0.24891603 0.82544273
0000c0 0a 76 79 3f f6 5d 2a be 6a 1f 0d 3f 6d 59 60 3f
       0.9744574 -0.16637406 0.5512606 0.8763645
0000d0 2e f0 9b 3f a6 ad 18 3f 63 f5 81 be a1 59 29 3f
       1.2182672 0.59639966 -0.25382528 0.6615239
0000e0 9d 93 99 3f b3 de 99 bd 10 dd fb bc d4 77 7a 3f
       1.1998173 -0.0751318 -0.03074506 0.97839093
0000f0 96 42 4b 3f 85 2b 33 3d 7c 20 18 3f 0c dc 5f 3f
       0.7939848 0.043742675 0.5942457 0.8744514
000100 b9 58 a4 3f 11 e5 24 3f 9b b3 f3 bd 2c b7 27 3f
       1.2839576 0.6441203 -0.118994914 0.65513873
000110 bd 0e ac 3f 9e d4 5c 3d 60 33 82 3e 1d 10 56 3f
       1.3441998 0.053913705 0.2542982 0.83618337
000120 9e c6 4b 3f a5 ff 65 bd 42 ee 5b be ba 18 69 3f
       0.7959994 -0.056152005 -0.21477607 0.91053355
000130 64 69 ee 3e 0a 9f 0e c0 2f b5 19 3e 5b 6c 3e 3f
       0.46564782 -2.228457 0.15010522 0.7438409
000140 d5 63 24 3f 69 a3 c3 3d 50 1b 6f be 4b b1 78 3e
       0.6421483 0.095526524 -0.23350263 0.24286382
000150 25 63 e6 bf a6 fa 6b be d9 b6 09 bf de 3d 96 3f
       -1.7999007 -0.23044834 -0.5379463 1.173763
000160 82 b2 38 3e 65 56 b0 3f 0a 56 a1 be f0 e7 42 bd
       0.18036845 1.3776366 -0.31510955 -0.047584474
000170 21 75 d0 bf a8 c2 09 3e 72 e0 2e 3e 76 22 d6 3f
       -1.6285745 0.13453162 0.17077807 1.6729267
000180 98 64 14 3f 9c c8 8a 3d 58 c0 6f 3f 50 39 93 3b
       0.57965994 0.067765445 0.9365287 0.004492916
000190 10 ec a9 bf 24 00 b3 3f f0 ab 41 be 53 d6 fa 3f
       -1.3275166 1.3984418 -0.18913245 1.9596657
0001a0 64 8b ab 3e 9f 72 a9 bd 10 8f ae bc da 57 51 c0
       0.33504784 -0.08273815 -0.021308452 -3.270987
0001b0 c4 0e 50 3f 52 a5 22 3e 49 0b 17 3f a0 bf 4c 3f
       0.8127253 0.15883377 0.59001595 0.79979897
0001c0 c5 8c 75 3f ff 08 1e 3f 26 0e 94 bd 2d 0d 23 3f
       0.9591792 0.61732477 -0.07229261 0.6369198
0001d0 03 75 85 3f 74 04 f6 3c e3 7e 81 be 1a 80 87 3f
       1.0426334 0.03003142 -0.2529212 1.0585968

fc3.bias f4 [10]
000000 4c 59 45 3f 95 02 8d bf a0 23 15 c0 6b 89 55 3f
       0.7708938 -1.1016413 -2.3302994 0.8341281
000010 ed d5 83 3f ab 58 e3 3f f3 b9 23 bf a1 36 d3 3e
       1.029966 1.7761434 -0.6395561 0.41252616
000020 c7 0f 05 bf 59 af 02 3f
       -0.519772 0.5104881
