dqn_conservative.pth (torch, 4639 bytes, 6 tensors)

fc1.weight f4 [16, 16]
-0.48695192 2.8183658 1.1864572 0.3108491 0.4737869 0.68970567 -1.3355045 -0.2642684
1.806426 0.5088498 -0.15895505 -0.78827095 -0.11895689 0.016566336 0.01576978 1.4678806
2.4916852 2.6048162 2.5435324 1.3581648 1.4687839 1.4324872 -0.77830446 0.10303796
0.7772884 0.7451284 -0.07841617 -1.2447435 -0.2421194 -0.07258651 0.027546495 -0.2889043
-0.0009948902 2.8293514 -0.3428536 0.49562243 0.20029563 0.34487206 -0.23404932 -0.004055914
3.7283463 -0.2166126 -0.18529971 -1.5731372 -0.15044841 0.089068025 0.05227682 0.83070755
-0.25864807 -0.30338857 -0.055507004 -0.009402507 -0.10427081 -0.03444189 0.1327536 0.10520645
-0.123553194 -0.14717864 0.0895424 0.001374998 0.23988125 -0.03759849 -0.007877678 -0.15200415
0.9907617 0.7050482 2.7479844 0.840149 1.0184332 0.87347585 0.054582387 -0.39848715
0.15551063 -0.53094554 -1.5391465 -0.4634641 -0.21034044 -0.11388376 -0.1280618 0.08570841
0.042505443 0.23135814 -0.12371507 0.14520004 -0.09909764 0.13864025 -0.23721623 0.18004513
-0.19295591 -0.21380821 -0.027297646 -0.1982502 0.095561504 -0.066826195 0.23266652 -0.120437145
-0.022781419 -0.1846266 -0.022225546 0.1555956 -0.20495683 0.18227637 -0.09115652 0.0769205
0.028532926 -0.105324686 0.031081246 -0.19714998 -0.13424242 -0.15123627 -0.13160715 0.1659028
1.2781591 0.8805604 2.6400237 0.9134046 0.5956076 0.7094318 -0.13257726 -0.27467608
0.5323234 -0.25282925 -0.98136455 -0.99511755 -0.024791539 0.14571851 -0.15791917 -0.3976191
1.0074848 1.1126293 3.1537297 1.1407801 1.1246941 1.2807333 -0.33237204 -0.11213376
0.6881541 -0.7121604 -1.4220698 -0.6354116 -0.23906368 -0.1648759 0.12750974 -0.2717035
0.0332985 0.22175214 -0.14441693 -0.16401711 0.11455142 -0.16620156 -0.03043604 0.16107032
-0.0008588912 -0.21821383 -0.12112063 -0.025138685 0.14318103 -0.05962631 0.18831849 0.0737178
1.5629666 1.5181707 2.1499658 1.2741001 1.1677775 1.4475139 -0.023815552 -1.4348443
2.2732575 0.9011818 1.7147208 -1.0685078 0.21940395 0.14259133 -0.11341426 -1.6532176
2.0661495 -1.1740072 -0.12842919 0.025712319 -0.27993688 -0.109819576 -0.1954098 -2.6942043
0.32178134 0.86605215 1.8719043 1.2818558 0.05012536 -0.10218021 0.017400682 -2.4509866
1.369063 0.7806112 3.3680162 1.2988749 1.2457081 1.2673026 1.1736155 -1.156139
0.56728464 -0.52177113 -1.3644348 -1.0164721 0.08051953 -0.2013278 0.02910629 -0.083422825
0.14620116 -0.006803423 -0.17814514 0.08692038 0.18051654 0.08570358 -0.20815265 -0.13630173
-0.19576865 -0.16497129 -0.04855457 -0.122436464 -0.16806978 0.14523146 -0.09119174 0.0028987527
1.9545269 -2.506074 0.08353704 0.5451799 0.28758666 0.63854414 -2.0657768 1.3342848
-1.0885652 2.691893 1.3029413 1.665764 0.21520355 -0.24912426 0.22594464 -0.6935557
0.20879701 -0.03805563 0.032973617 0.046079963 0.054380417 0.19044638 -0.09098688 -0.099384725
-0.20140183 -0.23671526 -0.15769938 -0.15952718 -0.10721767 -0.13217759 0.1450797 0.09543902
00000000: c351 f9be 1b60 3440 d4dd 973f 9d27 9f3e
00000010: 3294 f23e 8d90 303f d0f1 aabf 304e 87be
00000020: f838 e73f fb43 023f 1dc5 22be 20cc 49bf
00000030: ac9f f3bd 20b6 873c a02f 813c 83e3 bb3f
00000040: c577 1f40 4fb5 2640 3cc9 2240 58d8 ad3f
00000050: 1c01 bc3f be5b b73f f63e 47bf 9105 d33d
00000060: 5ffc 463f bcc0 3e3f a898 a0bd c153 9fbf
00000070: 26ee 77be 3ca8 94bd 30a9 e13c 44eb 93be
00000080: fa66 82ba 1814 3540 828a afbe 39c2 fd3e
00000090: 4c1a 4d3e 1293 b03e a0aa 6fbe 79e7 84bb
000000a0: 3a9d 6e40 b2cf 5dbe 35bf 3dbe 8f5c c9bf
000000b0: 260f 1abe 4c69 b63d 3820 563d 40a9 543f
000000c0: 856d 84be bf55 9bbe 505b 63bd f90c 1abc
000000d0: ef8b d5bd f012 0dbd 8ff0 073e 7b76 d73d
000000e0: 7509 fdbd ffb5 16be 0162 b73d 4739 b43a
000000f0: 6ea3 753e e000 1abd 6011 01bc faa6 1bbe
00000100: 8fa2 7d3f 0a7e 343f fade 2f40 0114 573f
00000110: 055c 823f 1d9c 5f3f c891 5f3d 8206 ccbe
00000120: 2e3e 1f3e 0cec 07bf c102 c5bf 2b4b edbe
00000130: 7c63 57be e43b e9bd a222 03be e487 af3d
00000140: 301a 2e3d 26e9 6c3e 545e fdbd 52af 143e
00000150: b4f3 cabd b6f7 0d3e d0e8 72be c05d 383e
00000160: 3c96 45be 8af0 5abe 509f dfbc 1a02 4bbe
00000170: c0b5 c33d 2cdc 88bd 2240 6e3e c0a7 f6bd
00000180: 19a0 babc c10e 3dbe 5912 b6bc 7454 1f3e
00000190: 34e0 51be a8a6 3a3e 45b0 babd 7f88 9d3d
000001a0: e2bd e93c 78b4 d7bd 199e fe3c afe1 49be
000001b0: d876 09be aedd 1abe 06c4 06be 6ce2 293e
000001c0: b89a a33f 686c 613f 26f6 2840 e2d4 693f
000001d0: bd79 183f 539d 353f 55c2 07be 58a2 8cbe
000001e0: 5946 083f d672 81be b53a 7bbf 06c0 7ebf
000001f0: a017 cbbc 3c37 153e 90b5 21be bb94 cbbe
00000200: 43f5 803f a36a 8e3f b5d6 4940 1505 923f
00000210: faf5 8f3f 12ef a33f ab2c aabe 62a6 e5bd
00000220: de2a 303f 2550 36bf 6206 b6bf 56aa 22bf
00000230: 1ccd 74be 3ad5 28be ea91 023e b91c 8bbe
00000240: 0264 083d fe12 633e 08e2 13be 1af4 27be
00000250: ef99 ea3d be30 2abe 0155 f9bc 9eef 243e
00000260: 3627 61ba 7273 5fbe 180e f8bd a5ef cdbc
00000270: 0c9e 123e b83a 74bd 90d6 403e 5cf9 963d
00000280: 4a0f c83f 6b53 c23f 0a99 0940 b615 a33f
00000290: bc79 953f 2348 b93f d518 c3bc faa8 b7bf
000002a0: 0d7d 1140 dab3 663f f97b db3f ddc4 88bf
000002b0: 6eab 603e 7603 123e bc45 e8bd a29c d3bf
000002c0: cb3b 0440 de45 96bf f182 03be a4a2 d23c
000002d0: e353 8fbe 16e9 e0bd 8219 48be d86d 2cc0
000002e0: 86c0 a43e 98b5 5d3f 8f9a ef3f da13 a43f
000002f0: 4050 4d3d dc43 d1bd e08b 8e3c f7dc 1cc0
00000300: 753d af3f 23d6 473f 948d 5740 8841 a63f
00000310: 5d73 9f3f f936 a23f 0839 963f 5dfc 93bf
00000320: 9139 113f cb92 05bf cda5 aebf c21b 82bf
00000330: 6ce7 a43d e028 4ebe 5070 ee3c 96d9 aabd
00000340: c2b5 153e 40ef debb ae6b 36be 5003 b23d
00000350: 54d9 383e 5c85 af3d f825 55be ae92 0bbe
00000360: 9477 48be 3cee 28be 28e1 46bd f8bf fabd
00000370: 7c1a 2cbe 8eb7 143e bcc2 babd 00f9 3d3b
00000380: f02d fa3f 8463 20c0 7815 ab3d e990 0b3f
00000390: 8f3e 933e a177 233f b035 04c0 d8c9 aa3f
000003a0: 1b56 8bbf fa47 2c40 c8c6 a63f c137 d53f
000003b0: 525e 5c3e 6e1a 7fbe 085e 673e de8c 31bf
000003c0: e2ce 553e 38e0 1bbd 580f 073d 58be 3c3d
000003d0: 00be 5e3d 6004 433e 5457 babd 388a cbbd
000003e0: 483c 4ebe 7c65 72be f27b 21be 185b 23be
000003f0: f094 dbbd 9059 07be c68f 143e 8875 c33d

fc1.bias f4 [16]
1.4915029 -0.6295908 1.1645917 -0.22011662 -0.123955615 -0.064045936 -0.12881257 -0.08199533
0.013157839 0.17944673 -1.7314497 -2.7629747 -0.18868944 0.13350153 -0.44755602 0.20688358
00000000: 91e9 be3f dd2c 21bf 5711 953f 4066 61be
00000010: 71dc fdbd 842a 83bd 71e7 03be 2bed a7bd
00000020: fa93 573c e2c0 373e 25a0 ddbf 94d4 30c0
00000030: ce37 41be a0b4 083e 1026 e5be 4ad9 533e

fc2.weight f4 [12, 16]
1.1121994 0.61027205 0.6544539 0.0011074862 -0.51446277 0.040046304 -0.0671082 -0.43423784
-0.18285194 -0.105243854 -1.5309287 -1.4169401 -1.4385166 0.20114833 1.0917103 0.035275698
1.643343 2.099343 1.6957996 0.029014273 1.1956985 -0.14837262 -0.082923 0.44168082
1.5787784 -0.007377812 0.6961703 -1.4732374 -0.2322307 0.08955234 -1.6930894 -0.22993952
-0.53472036 3.3439467 -2.743796 -0.24977759 -0.27644956 -0.24473333 0.027125776 -1.0415744
-0.016204068 0.07061663 1.5084714 1.1824123 -4.5194855 0.15472504 1.338556 -0.0690293
-0.071242124 -0.18049224 -0.086105816 0.016398758 0.073126286 0.18168843 -0.042065293 -0.23697835
-0.0072324574 -0.17013645 -0.26502547 0.11063956 -0.11594495 -0.096565455 -0.090844885 0.021494627
-0.16918173 0.18450189 -0.07386939 -0.00044073048 -0.15463153 0.072582066 0.15080705 -0.22603399
0.11550994 -0.12501907 -0.1362181 0.083180994 -0.12711588 -0.10269639 -0.18973899 -0.07049322
0.008566579 -0.29615465 -0.29187912 0.07704611 0.19993237 -0.117857516 0.0474481 -0.23346499
-0.23843884 0.20104343 -0.049173046 0.1295981 -0.055333316 -0.20092559 -0.12906185 0.0025025308
1.1880006 1.3386247 1.4446 -0.095501505 1.206837 -0.06628439 -0.09884485 1.230952
1.1910455 0.056245413 0.2551967 -1.945891 1.0630599 -0.14678341 -1.0585634 -0.23074847
1.5329895 1.7628905 1.8881396 -0.0631173 0.6245068 -0.13781637 -0.19647759 0.78421867
1.3089138 0.18973511 0.67490935 -2.0144293 -1.7786554 0.2163949 -1.7641062 -0.16534498
1.1709514 1.4795012 1.5161107 -0.05555848 0.895273 0.08964318 -0.22770694 0.80955875
1.0299684 0.04993191 0.8476842 -1.6065605 -1.7662697 -0.20647436 -0.47446907 -0.051930636
1.5734268 1.0829415 2.7172945 0.11573473 1.118525 -0.007256776 0.18712196 0.9474404
1.2185173 0.109526634 4.4300685 2.1856503 0.6982034 -0.24011603 0.17583309 -0.17598358
0.88432735 0.905796 0.8914434 -0.07997761 1.5753679 0.106363475 0.20826745 1.0014926
0.9253042 0.19464055 0.41387367 -1.183082 2.4494975 -0.19202238 -1.7692666 -0.0010845065
0.71768796 2.4912314 3.5872679 -0.099602416 -0.61926526 -0.2075023 -0.04546778 -0.7549495
-0.11761727 -0.005637961 3.4522245 0.8429382 -3.5360112 -0.12245682 -0.0490852 0.05798495
00000000: 8d5c 8e3f ca3a 1c3f 4a8a 273f 1229 913a
00000010: d5b3 03bf 9807 243d 0670 89bd 6c54 debe
00000020: 8a3d 3bbe 178a d7bd 79f5 c3bf 4b5e b5bf
00000030: 5021 b8bf d4f9 4d3e 2abd 8b3f 407d 103d
00000040: 1059 d23f a35b 0640 f60f d93f 57af ed3c
00000050: a60c 993f feee 17be 89d3 a9bd fd23 e23e
00000060: 6915 ca3f 93c1 f1bb 3738 323f 0b93 bcbf
00000070: e2cd 6dbe 3867 b73d 27b7 d8bf 4475 6bbe
00000080: 6fe3 08bf 3903 5640 5b9a 2fc0 b2c5 7fbe
00000090: cc8a 8dbe 609b 7abe e036 de3c 4f52 85bf
000000a0: 65be 84bc 749f 903d 9715 c13f 4959 973f
000000b0: a09f 90c0 3e70 1e3e ce55 ab3f 3c5f 8dbd
000000c0: 64e7 91bd f5d2 38be 3f58 b0bd b056 863c
000000d0: 3cc3 953d 880c 3a3e a84c 2cbd 74aa 72be
000000e0: 40fe ecbb 4038 2ebe 6bb1 87be fe96 e23d
000000f0: 8c74 edbd 1cc4 c5bd e20c babd 8015 b03c
00000100: fa3d 2dbe 10ee 3c3e d648 97bd d811 e7b9
00000110: ba57 1ebe e8a5 943d 2a6d 1a3e 7475 67be
00000120: 7a90 ec3d 0005 00be c27c 0bbe cc5a aa3d
00000130: aa2a 02be 7c52 d2bd f04a 42be c05e 90bd
00000140: d65a 0c3c 95a1 97be 2e71 95be 5aca 9d3d
00000150: 12bb 4c3e 485f f1bd f058 423d 7211 6fbe
00000160: 5029 74be 54de 4d3e ad69 49bd 5db5 043e
00000170: 30a5 62bd 70bf 4dbe ca28 04be 8001 243b
00000180: 6710 983f 0e58 ab3f a7e8 b83f 4b96 c3bd
00000190: a379 9a3f 1cc0 87bd 2b6f cabd d68f 9d3f
000001a0: 2e74 983f 9761 663d 24a9 823e f512 f9bf
000001b0: 5912 883f 644e 16be 017f 87bf 5449 6cbe
000001c0: 0039 c43f 65a6 e13f 8fae f13f a543 81bd
000001d0: addf 1f3f bc1f 0dbe 6c31 49be 8ec2 483f
000001e0: 7d8a a73f ec49 423e dcc6 2c3f 69ec 00c0
000001f0: fbaa e3bf a096 5d3e 3bce e1bf 3250 29be
00000200: bce1 953f 4c60 bd3f ea0f c23f 4a91 63bd
00000210: 9c30 653f d896 b73d 022c 69be 3e3f 4f3f
00000220: 01d6 833f 6785 4c3d d501 593f c6a3 cdbf
00000230: 2015 e2bf 046e 53be 9ced f2be 38b5 54bd
00000240: 0d66 c93f d49d 8a3f 27e8 2d40 5506 ed3d
00000250: d42b 8f3f 40ca edbb e69c 3f3e 748b 723f
00000260: 60f8 9b3f 804f e03d 1fc3 8d40 b2e1 0b40
00000270: 75bd 323f fae0 75be 970d 343e 0a35 34be
00000280: 4763 623f 3fe2 673f a235 643f 4dcb a3bd
00000290: a8a5 c93f 18d5 d93d 1044 553e e930 803f
000002a0: bce0 6c3f da4f 473e 40e7 d33e 3b6f 97bf
000002b0: 91c4 1c40 84a1 44be 5477 e2bf 0026 8eba
000002c0: 66ba 373f 5670 1f40 cc95 6540 5afc cbbd
000002d0: 2b88 1ebf 7c7b 54be 6c3c 3abd 5f44 41bf
000002e0: 53e1 f0bd a5be b8bb 3ff1 5c40 ccca 573f
000002f0: 024e 62c0 a4ca fabd 900d 49bd a081 6d3d

fc2.bias f4 [12]
3.4595842 0.5777347 -2.2754602 -0.04157658 0.15353045 0.07909325 0.31252322 0.3434466
0.67640686 -3.148843 -0.18155842 -2.1460705
00000000: d469 5d40 6ce6 133f 24a1 11c0 344c 2abd
00000010: 1637 1d3e a4fb a13d 0b03 a03e 3cd8 af3e
00000020: 0029 2d3f a586 49c0 73ea 39be 3859 09c0

fc3.weight f4 [10, 12]
1.544592 1.3438504 0.49571067 -0.264723 -0.028115392 0.074356526 0.98521894 1.1703862
0.7121552 1.233057 0.6596332 1.0178039 0.19523723 0.6758847 0.8765048 0.17420793
0.06934145 -0.27435297 0.7203283 1.0022818 0.42337713 1.2284743 0.9649223 0.6484189
-0.76154876 1.9457613 0.86271834 0.028722495 0.10772305 -0.23326787 0.9831049 1.9021758
1.5761874 0.37443164 -0.15817207 0.9424254 2.1875014 1.0775222 0.37169042 -0.17534952
-0.10869555 0.096027195 0.7503552 0.67944455 0.8192389 1.6138577 1.0691555 0.9376634
2.5711954 0.6108528 0.2082809 0.028044365 0.0014095902 0.11607319 1.0734786 0.69299453
0.6835038 1.762442 1.1271999 1.0941743 3.191501 1.0036756 0.16129865 0.07793655
-0.010371119 0.0478293 1.3690599 1.177937 0.5957667 1.5869561 0.59179986 1.3614593
0.7410825 0.98483 1.0324166 -0.124824114 0.28482372 -0.15930973 0.73194885 1.3178464
1.3813212 0.80724937 -0.34612164 1.4174554 -3.985918 1.3525243 0.6167428 -0.19099195
0.19906923 0.26606786 1.128474 1.0843836 1.2113513 1.6732756 1.3575969 1.3472058
-0.19837666 2.5663939 2.6845188 0.18490686 0.2819416 -0.008215219 0.73646396 2.1496105
1.1857798 0.013902358 1.2295587 -0.29537335 1.9774402 0.97954315 0.21579371 -0.020199614
0.014320314 -0.22735165 0.90338975 1.1178095 0.94241095 1.5282857 0.1663207 1.2623984
00000000: 31b5 c53f 4a03 ac3f cacd fd3e c689 87be
00000010: 4052 e6bc 3c48 983d 4f37 7c3f 37cf 953f
00000020: ce4f 363f d0d4 9d3f b9dd 283f 6647 823f
00000030: 45ec 473e c806 2d3f 9e62 603f 9063 323e
00000040: e402 8e3d fe77 8cbe 6f67 383f c54a 803f
00000050: e3c4 d83e a53e 9d3f 2605 773f c8fe 253f
00000060: dcf4 42bf b50e f93f 1cdb 5c3f 704b eb3c
00000070: e79d dc3d c6dd 6ebe c3ac 7b3f 7f7a f33f
00000080: 82c0 c93f 81b5 bf3e dcf7 21be ca42 713f
00000090: 0600 0c40 3fec 893f 354e be3e d38e 33be
000000a0: c69b debd e8a9 c43d 4717 403f 14f0 2d3f
000000b0: a4b9 513f e492 ce3f 16da 883f b50a 703f
000000c0: 778e 2440 d960 1c3f 9747 553e 4cbd e53c
000000d0: 00c2 b83a c8b7 ed3d bf67 893f 1768 313f
000000e0: 1bfa 2e3f b397 e13f 1648 903f e70d 8c3f
000000f0: 8d41 4c40 7178 803f 792b 253e 339d 9f3d
00000100: a0eb 29bc a8e8 433d 5b3d af3f a4c6 963f
00000110: 2b84 183f 6121 cb3f 3280 173f 4c44 ae3f
00000120: 95b7 3d3f d21d 7c3f 3a26 843f c9a3 ffbd
00000130: 6ad4 913e 1722 23be 0061 3b3f 31af a83f
00000140: 22cf b03f e5a7 4e3f db36 b1be 2e6f b53f
00000150: 4819 7fc0 841f ad3f dbe2 1d3f 6593 43be
00000160: ced8 4b3e 0c3a 883e d671 903f 15cd 8a3f
00000170: 8f0d 9b3f e52d d63f bcc5 ad3f 3d71 ac3f
00000180: 4023 4bbe cc3f 2440 28cf 2b40 3958 3d3e
00000190: a65a 903e 2099 06bc e788 3c3f 3893 0940
000001a0: a2c7 973f b7c6 633c 2e62 9d3f 2d3b 97be
000001b0: c31c fd3f 57c3 7a3f 07f9 5c3e a979 a5bc
000001c0: c09f 6a3c dfce 68be 8d44 673f 6214 8f3f
000001d0: d841 713f de9e c33f f94f 2a3e 4596 a13f

fc3.bias f4 [10]
1.355528 0.33015227 -2.5457532 3.2023463 3.6137106 3.662164 -2.837547 -3.2074738
-1.1618435 2.9982183
00000000: f181 ad3f b809 a93e 9fed 22c0 3ef3 4c40
00000010: 0947 6740 e560 6a40 5f9a 35c0 4047 4dc0
00000020: 4ab7 94bf cfe2 3f40
