dqn_normal.pth (torch, 4527 bytes, 6 tensors)

fc1.weight f4 [16, 16]
0	0x3db81614	0.08988586
1	0x3deff82c	0.11717257
2	0x3f32a899	0.6978851
3	0x3f822075	1.0166155
4	0x3fd3e99b	1.6555666
5	0x4026d3bb	2.606673
6	0xbf940e07	-1.1566781
7	0x3f024286	0.50882757
8	0xbf91a34f	-1.1377963
9	0xbe866fea	-0.2625726
10	0x3e2f07b3	0.17092781
11	0x3fb5ed92	1.4213126
12	0xbe6c588e	-0.23080656
13	0x3e50a918	0.20377004
14	0x3e49e942	0.19717887
15	0x3eec87e9	0.4619744
16	0xbf1b064c	-0.60556483
17	0xbe9a7836	-0.3016984
18	0x3ec03eac	0.37547815
19	0xbeadaa28	-0.3391888
20	0x3d4b9adf	0.049708243
21	0xbd33ec43	-0.04392649
22	0x3eb7c0b3	0.35889205
23	0x3eb49c6b	0.35275587
24	0xbf15a7a6	-0.58458936
25	0xbe704c10	-0.23466516
26	0xbd3ace2e	-0.045606785
27	0x3f06dd6f	0.5268163
28	0xbe6fafd0	-0.23406911
29	0x3e126b00	0.1429863
30	0xbd53c310	-0.051699698
31	0x3fcb5566	1.5885437
32	0x3e7cf616	0.2470325
33	0x3dcd1d68	0.100153744
34	0x3d894d08	0.06704146
35	0x3e6e40c0	0.23266888
36	0x3e65781e	0.22409102
37	0xbc2c7380	-0.010525584
38	0x3e6273ca	0.22114483
39	0xbd9760a8	-0.073914826
40	0xbe59b7c8	-0.21261513
41	0xbe72faf6	-0.23728547
42	0xbe281520	-0.16414309
43	0xbe688d40	-0.22710133
44	0x3d7e30b8	0.06205818
45	0xbdd840bc	-0.10559222
46	0x3d930d98	0.07180327
47	0xbe3e79b8	-0.1860112
48	0xbe902f10	-0.28160906
49	0xbe80328b	-0.2503856
50	0xbf8683db	-1.0508989
51	0xbed601b4	-0.41798174
52	0xbec65e19	-0.38743666
53	0x3fbf22de	1.4932516
54	0xbf066d59	-0.525106
55	0xbe5931b9	-0.21210374
56	0xbe94d46a	-0.2906831
57	0xbdcaa0af	-0.09893929
58	0xbe208894	-0.156771
59	0xbe13ed46	-0.14445981
60	0xbe2f161a	-0.17098275
61	0xbe112ec4	-0.14177996
62	0x3e69c610	0.22829461
63	0x3f9ed3ed	1.2408425
64	0xbe5101c6	-0.20410833
65	0xbed0507d	-0.40686408
66	0xbf6273fa	-0.88458216
67	0xbcb15bb8	-0.02165018
68	0xbc83ef38	-0.01610528
69	0xbd7cebdc	-0.06174837
70	0xbf5c30ab	-0.8601176
71	0x4003cc08	2.059328
72	0xbeed1038	-0.46301436
73	0x3c2b24bd	0.010445771
74	0xbee9bf7e	-0.4565391
75	0xbdb9b3b3	-0.09067478
76	0x3e6de9fe	0.23233792
77	0xbcc0fc10	-0.023557693
78	0xbe076f62	-0.13226083
79	0x3f840001	1.0312501
80	0x3f1ba548	0.60799074
81	0x3eb0cbe1	0.34530547
82	0x3f7859ac	0.9701183
83	0x3e793978	0.24338329
84	0x3e70041a	0.23439065
85	0x3f155f75	0.5834878
86	0xbf5c026c	-0.85941195
87	0x3e872cbb	0.26401314
88	0xbe1d0fe4	-0.15338093
89	0x3f555808	0.8333745
90	0xbb0ff2cd	-0.002196479
91	0x3eb47686	0.35246676
92	0x3d842d94	0.06454006
93	0x3d794998	0.0608612
94	0xbdae3a30	-0.08507192
95	0xbf80d4a6	-1.0064895
96	0x3e886ebb	0.2664698
97	0xbdfc3f90	-0.12316811
98	0xbf5ae63f	-0.8550758
99	0x3f08b9fc	0.5340879
100	0x3f040bd6	0.5158056
101	0x3f7cd93b	0.9876897
102	0x3f2e266b	0.6802737
103	0xbf41fa4d	-0.75772554
104	0x3f5be3c3	0.8589441
105	0xbeab8b67	-0.33504793
106	0x3f592cbb	0.8483388
107	0xbea503bc	-0.32229412
108	0xbdcf04fc	-0.101083726
109	0xbe6314bc	-0.22175878
110	0xbdc87f48	-0.09789902
111	0x3ee20c54	0.4415003
112	0x3e38b468	0.1803757
113	0x3e594fcc	0.21221846
114	0xbe76017e	-0.24024007
115	0xbd4770e0	-0.04869163
116	0xbdb7fd9c	-0.08983919
117	0x3d551bf8	0.052028626
118	0x3e12090e	0.14261267
119	0xbd9e82c8	-0.07739788
120	0xbe0dcd54	-0.13847858
121	0xbe55976e	-0.20858547
122	0xbe0f8914	-0.14017135
123	0xbce488d0	-0.027897269
124	0xbe6be478	-0.23036373
125	0xbdd19aa8	-0.102345765
126	0x3e656410	0.22401452
127	0x3e16a83e	0.14712617
128	0xbc97782a	-0.018489916
129	0xbe2f5639	-0.17122735
130	0xbeb3f081	-0.35144427
131	0x3ebb9ab6	0.36641473
132	0x3f292226	0.6606773
133	0x3f6a83c3	0.916073
134	0x3f072def	0.52804464
135	0xbf02e369	-0.5112825
136	0x3e349112	0.17633465
137	0xbea3770b	-0.3192676
138	0x3ecda7fd	0.40167227
139	0x3e761108	0.24029934
140	0xbd8c0ce4	-0.06838396
141	0x3dceb9a8	0.10094005
142	0x3d1da728	0.03848949
143	0x3f56050b	0.83601445
144	0x3e68632a	0.22694078
145	0xbe44c7cf	-0.19216846
146	0x3f4ca889	0.79944664
147	0x3ee9d15b	0.45667538
148	0x3f563eb0	0.83689404
149	0x3e97b80e	0.2963261
150	0x3e6240ad	0.22094984
151	0x3f24d693	0.64389914
152	0x3e095d02	0.13414386
153	0x3eb6ac71	0.35678437
154	0xbda38313	-0.07983985
155	0x3f1ebef5	0.6201013
156	0x3e71fcee	0.23631641
157	0x3e48cd02	0.19609454
158	0xbda9c888	-0.082902014
159	0x3fe297bb	1.7702554
160	0x3e75d1a6	0.24005756
161	0x3ebedd51	0.37278226
162	0xbf4673eb	-0.77520627
163	0x3f212063	0.62940043
164	0x3f9aa3ab	1.2081198
165	0x3ffd1d86	1.9774635
166	0xbed818a4	-0.422063
167	0x3f2324fe	0.6372832
168	0x3f95183a	1.1648018
169	0x3f0f521b	0.5598466
170	0xbe819006	-0.25305194
171	0xbea2907f	-0.31750867
172	0xbe0b7ec8	-0.13622582
173	0xbc969250	-0.018380314
174	0x3c45d420	0.0120745
175	0x3f102549	0.5630689
176	0x3e15fabe	0.14646432
177	0xbe69e6f0	-0.22842002
178	0xbe2f2464	-0.17103726
179	0xbe6d2892	-0.23160008
180	0xbc921560	-0.017832458
181	0x3e5ff508	0.21870816
182	0xbe15da64	-0.1463409
183	0x3d9473f0	0.07248676
184	0xbe679828	-0.22616637
185	0xbd4c4460	-0.049869895
186	0x3d7f8ef8	0.062392205
187	0xbe4cce48	-0.20000565
188	0xbe686bb0	-0.2269733
189	0x3d326008	0.043548614
190	0xbe545d34	-0.20738679
191	0xbdcfeae8	-0.10152227
192	0xbe9d58ee	-0.3073191
193	0xbedc7705	-0.43059555
194	0xbf98e8bf	-1.1946028
195	0xbd234b2d	-0.039866615
196	0x3d098aa0	0.03357947
197	0x3f14ba9c	0.58097243
198	0x3f4067f7	0.7515864
199	0xbf65898b	-0.89663
200	0xbedc4922	-0.43024546
201	0xbeba5739	-0.3639467
202	0xbe14c641	-0.14528753
203	0xbd43f6f5	-0.04784294
204	0x3dccc408	0.099983275
205	0x3e6405a6	0.2226778
206	0xbd927984	-0.071520835
207	0x3fd2426b	1.6426519
208	0x3d5efb60	0.05443895
209	0x3e5e21b0	0.21692538
210	0xbd71abc8	-0.059001714
211	0x3d4ccf20	0.050002217
212	0xbe07aa4e	-0.1324856
213	0xbde9c370	-0.1141423
214	0x3d2c7620	0.04210484
215	0xbd4f2098	-0.050568193
216	0xbbb18d40	-0.0054184496
217	0x3c011cc0	0.00788039
218	0xbe053d14	-0.1301158
219	0xbe72d2bc	-0.23713201
220	0xbe740c6a	-0.2383286
221	0xbdaf94b4	-0.08573285
222	0xbe1856aa	-0.1487681
223	0xbd094878	-0.033516377
224	0x3ea4596f	0.32099482
225	0x3f4e5384	0.80596185
226	0xbf9827cc	-1.1887145
227	0x3fa3e824	1.2805219
228	0x3ff3131d	1.8990208
229	0x4046a85a	3.1040254
230	0xbfa53639	-1.2907172
231	0x3f1cb688	0.6121602
232	0x3f892214	1.0713525
233	0x3e956e3d	0.29185668
234	0x3c914cc1	0.017736794
235	0xbe0d9635	-0.1382683
236	0x3d502da0	0.05082476
237	0xbe56a760	-0.20962286
238	0xbe6b2ebe	-0.2296705
239	0x3e4ddd04	0.20103842
240	0x3ed9c08f	0.42529723
241	0x3f1da0b1	0.6157332
242	0xbd30304f	-0.04301482
243	0x3f956cd9	1.1673843
244	0x3fa6ede2	1.3041346
245	0x3fdd0c80	1.726944
246	0xbfaac134	-1.3340211
247	0x3e2a91bb	0.16657154
248	0x3f5e2fbf	0.86791605
249	0xbd4dd521	-0.050252084
250	0xbe3ee18e	-0.1864073
251	0x3e9544b5	0.29153982
252	0x3e5224f4	0.20521909
253	0xbdd1d20c	-0.102451414
254	0x3e4c7850	0.1996777
255	0x3f77203f	0.9653358

fc1.bias f4 [16]
0	0x3ea96969	0.33088234
1	0x3fcb60f9	1.5888969
2	0x3d956ae8	0.072957814
3	0x3fcdd53a	1.6080697
4	0x3f84b286	1.0366981
5	0xbf825dc9	-1.0184871
6	0x3ea6b71d	0.3256158
7	0x3e6047fe	0.21902463
8	0x3f9567a8	1.1672258
9	0x3fd14708	1.6349802
10	0x3ef09982	0.46992117
11	0xbc902860	-0.017597377
12	0x3fa9636d	1.3233467
13	0x3e634666	0.22194824
14	0x3e8ce45f	0.27517983
15	0x3f992e89	1.1967326

fc2.weight f4 [12, 16]
0	0xbe3e5e0e	-0.18590567
1	0x3f8735d4	1.0563302
2	0x3e672b88	0.225752
3	0x3fb71792	1.4304068
4	0xbe94706a	-0.28992015
5	0xbf88ad46	-1.0677879
6	0x3e64f00d	0.22357197
7	0x3c31f5a0	0.010861784
8	0x3edd1266	0.431781
9	0x3ede6baa	0.43441516
10	0xbee2c70d	-0.4429249
11	0x3e6d06d6	0.23147139
12	0x400146a2	2.019936
13	0x3dcacbe4	0.0990217
14	0xbf676a3b	-0.9039647
15	0xbf2c2c10	-0.67254734
16	0x3f6a694d	0.91566926
17	0x3fad7e84	1.3554235
18	0xbc80f060	-0.01573962
19	0x3fcceb7c	1.6009364
20	0x3f76b236	0.9636568
21	0xbe161698	-0.14657056
22	0xbf833181	-1.0249482
23	0xbe7aa08c	-0.24475306
24	0x3e7d3295	0.24726327
25	0x3e94acda	0.29038125
26	0xbf2f0d8b	-0.6838004
27	0xbe3685da	-0.17824498
28	0x3fabc5aa	1.3419697
29	0xbe4567f6	-0.19277939
30	0xbe7c9426	-0.24665889
31	0x3e61cafb	0.22050087
32	0xbe4a7270	-0.19770217
33	0xbd7a3859	-0.061088894
34	0x3c731700	0.014837027
35	0xbe65989c	-0.22421497
36	0x3e239350	0.15974164
37	0x3dfcc218	0.12341708
38	0x3c676c72	0.0141249765
39	0x3e77ac38	0.2418679
40	0x3d7953de	0.060870998
41	0xbce056ad	-0.02738508
42	0xbe1ab394	-0.15107566
43	0x3b344980	0.002750963
44	0x3d124480	0.035709858
45	0x3e20a234	0.15686876
46	0xbcd0c7e2	-0.025485937
47	0xbe5cd388	-0.21565068
48	0x3e6ef167	0.23334275
49	0x3f2fbb71	0.6864539
50	0xbd1b5910	-0.037926733
51	0x403c936e	2.9464984
52	0x402d7f58	2.7108974
53	0x3e7415fa	0.23836508
54	0xbf37e1cb	-0.7182891
55	0xbe3b3f2c	-0.18285817
56	0x3d635d45	0.05550887
57	0x3f734386	0.9502491
58	0x3f4f074c	0.8087051
59	0xbd634ad0	-0.05549127
60	0x3f15c18e	0.58498466
61	0xbe510d02	-0.20415118
62	0x3f28d01e	0.6594256
63	0x3f5b2649	0.85605294
64	0x3f23c978	0.6397929
65	0x3fbe74b3	1.4879364
66	0xbe74acd4	-0.23894054
67	0x40934620	4.60231
68	0x3f983cb7	1.1893529
69	0xbf933974	-1.1501908
70	0x3f452e1d	0.7702349
71	0xbe365e46	-0.178094
72	0x3f56172d	0.83629113
73	0x3f92ba89	1.1463176
74	0x3eeffc01	0.4687195
75	0xbe13011c	-0.14355892
76	0x400f8f12	2.2431073
77	0xbb171f00	-0.002305925
78	0x3ec09b59	0.3761852
79	0x3fa2cf8b	1.2719587
80	0x3f0c21e4	0.54739213
81	0xbe3ea155	-0.18616231
82	0x3df7e888	0.12104899
83	0xbe9a3042	-0.30114943
84	0x3ec3a581	0.38212207
85	0x3f9503c8	1.1641779
86	0x3f0402e1	0.5156689
87	0x3dbcd77c	0.09220788
88	0x3ec6022c	0.38673532
89	0x3ede0ce2	0.43369204
90	0x3f522e9d	0.82102376
91	0xbd9f74d0	-0.07785952
92	0x3e9fdb1b	0.31221852
93	0x3dbdaef0	0.09261882
94	0x3f5d0567	0.8633637
95	0x3e5a20fc	0.21301645
96	0xbd4263e7	-0.047458556
97	0x3f9798e7	1.1843537
98	0x3e0ce564	0.1375938
99	0x409de3e9	4.934071
100	0x3fa9f0db	1.3276628
101	0xbf4723ea	-0.77789176
102	0x3f06b0e1	0.52613646
103	0x3df79424	0.120888025
104	0x3f0fd0e3	0.5617811
105	0x3f3ab02e	0.7292508
106	0x3f97c06e	1.18556
107	0xbd245910	-0.040124
108	0x404389e2	3.0552907
109	0x3d32da28	0.04366508
110	0x3f8a78f0	1.0818157
111	0x3fa7f855	1.312266
112	0x3d26cc58	0.04072222
113	0xbe197a76	-0.14988121
114	0x3e26b84e	0.16281244
115	0x3e78ca7e	0.24295995
116	0xbe119bc6	-0.14219579
117	0xbd3fade8	-0.04679671
118	0x3b2fbf00	0.0026816726
119	0xbe341692	-0.17586735
120	0xbd3a0a38	-0.0454199
121	0xbc9fdf20	-0.019515574
122	0xbe394e5c	-0.18096298
123	0x3d244ee8	0.040114313
124	0x3db9fc88	0.0908137
125	0xbe74ff8c	-0.23925608
126	0xbe69b178	-0.22821605
127	0x3d99c2c8	0.07507855
128	0xbee6fb7a	-0.45113736
129	0x3f780d08	0.96894884
130	0x3e3903ac	0.18067807
131	0x3f89b1d4	1.0757394
132	0x3e5a71cf	0.21332477
133	0xc0023d83	-2.0350044
134	0x3ed0f31d	0.4081048
135	0xbe5e4dd4	-0.21709377
136	0x3eafdde8	0.3434899
137	0x3d58f832	0.052971072
138	0xbe6882b3	-0.22706108
139	0xbe2e98ae	-0.1705043
140	0x401c5f2c	2.4433088
141	0x3da522bc	0.08063266
142	0xbef7d964	-0.48408043
143	0xbeeaba45	-0.45845237
144	0x3e5952f1	0.21223046
145	0xbe0d023d	-0.13770385
146	0x3c6b4cc0	0.01436156
147	0x3dfd2bd4	0.12361875
148	0x3e149857	0.14511238
149	0x3cd5f097	0.026115699
150	0xbe501478	-0.20320308
151	0x3e73bbd2	0.23802117
152	0xbe0232cc	-0.1271469
153	0xbe673851	-0.22580077
154	0xbe566743	-0.20937829
155	0xbc435fa0	-0.011924654
156	0xbe21050a	-0.15724578
157	0xbe18a1a6	-0.14905414
158	0xbe57e9a7	-0.21085225
159	0xbe22036c	-0.15821618
160	0x3dcae931	0.09907759
161	0xbf02d2d0	-0.51102924
162	0xbe305384	-0.17219359
163	0x3f9a0fd1	1.2036077
164	0xbff7c5db	-1.9357256
165	0xbe6f0861	-0.2334304
166	0x3fa06695	1.2531306
167	0x3e5199f0	0.20468879
168	0x3f2d48a1	0.6768895
169	0xbe432ce6	-0.19060096
170	0x3ee760dc	0.45191085
171	0xbe353138	-0.17694557
172	0x3ff81d94	1.9384027
173	0xbc8444b0	-0.016146034
174	0x3f511e2d	0.8168667
175	0x3e82b5bd	0.2552928
176	0x3f42365e	0.7586421
177	0x3f3309ef	0.6993703
178	0xbe716a16	-0.23575625
179	0xbec2d711	-0.38054708
180	0xbfee97d8	-1.8640089
181	0xbedd3cc0	-0.4321041
182	0x3f2dd1f0	0.67898464
183	0x3e460050	0.19336057
184	0x3f3b06fe	0.73057544
185	0x3e83dd1d	0.25754634
186	0xbf147c78	-0.58002424
187	0xbd6cf680	-0.05785227
188	0x3f4b25b5	0.7935441
189	0x3e13ba80	0.14426613
190	0x3e2adcd5	0.16685803
191	0x3e534e76	0.20635399

fc2.bias f4 [12]
0	0x3f7c4f98	0.9855895
1	0x3c0f123b	0.008732374
2	0x3e4e9be8	0.20176661
3	0x3f787aef	0.9706258
4	0x3fccfc23	1.6014446
5	0xbf653ea5	-0.8954871
6	0x40189e08	2.3846455
7	0x3e4f309e	0.2023339
8	0x3f5842da	0.8447701
9	0x3e211f70	0.15734649
10	0x3f04e1f6	0.5190729
11	0xbba9d3d2	-0.0051827217

fc3.weight f4 [10, 12]
0	0x40043c27	2.0661714
1	0x3ebe4059	0.37158468
2	0x3e0fcca0	0.14042902
3	0x3f05c893	0.52259177
4	0x3f77a2c5	0.9673274
5	0x3d32f66e	0.043692045
6	0x3f23dcd8	0.64008856
7	0xbe32e2a1	-0.17469265
8	0x3ef0db18	0.47042155
9	0x3dfafffc	0.122558564
10	0x3e1ced2a	0.15324846
11	0x3d878b33	0.06618347
12	0x3f968d94	1.1761956
13	0x3e2e2453	0.17006044
14	0x3d54618a	0.051850833
15	0x3edc4cea	0.4302743
16	0x3f63fb87	0.89055675
17	0x3da71ee7	0.08160191
18	0x3f1e9856	0.61951196
19	0x3df2c810	0.11854565
20	0x3fe53d4b	1.790933
21	0x3e2aca50	0.16678739
22	0x3dfa57e9	0.12223799
23	0x3e9447e5	0.289611
24	0x3e8ee9fb	0.27912888
25	0x3d9b6ec2	0.07589485
26	0x3ddd6e6b	0.10812076
27	0x3ea04a29	0.3130658
28	0x3f896be0	1.0736046
29	0xbe9cefd9	-0.3065174
30	0x3f2c68cd	0.67347413
31	0x3e6f25c0	0.23354244
32	0x406d7509	3.7102683
33	0x3e088102	0.13330463
34	0xbed68073	-0.41894874
35	0x3e6d1413	0.23152189
36	0x3ff1875c	1.8869433
37	0x3ea471c7	0.32118055
38	0xbc41c397	-0.011826417
39	0x3f044b9d	0.51677877
40	0x3f82165e	1.0163076
41	0xbe44650e	-0.19179174
42	0x3f4915b1	0.78548723
43	0xbd5bc484	-0.05365421
44	0x3eb2dcf2	0.34934193
45	0x3e5c6bf7	0.2152556
46	0x3e7c3bed	0.24632235
47	0x3e25f28f	0.1620581
48	0x3fa03f6f	1.2519358
49	0x3e5ac680	0.21364784
50	0x3e92350e	0.28556103
51	0x3eb890cd	0.36047974
52	0x3f8cad15	1.099032
53	0xbe4d81fc	-0.20069116
54	0x3f55b914	0.8348553
55	0xbe3468d6	-0.17618117
56	0x3f9817a8	1.1882219
57	0x3d986858	0.07441777
58	0x3e1a8421	0.15089466
59	0x3ece961a	0.40348893
60	0x4003e99c	2.0611334
61	0x3ef4109c	0.47668922
62	0xbe2d7e37	-0.16942678
63	0x3f1d7553	0.6150715
64	0x3f317594	0.69320035
65	0xbe01b0f4	-0.12665159
66	0x3f905ccb	1.1278318
67	0xbe4a2a90	-0.19742799
68	0xbe81ddfa	-0.25364667
69	0x3e47b0d6	0.19501051
70	0x3ea9ffe8	0.33203053
71	0xbe2d4f32	-0.16924742
72	0xc02329f4	-2.5494356
73	0xbdc1719a	-0.09445496
74	0xbe1ae38b	-0.15125863
75	0x3f87252c	1.0558219
76	0x3e3378bc	0.17526525
77	0x3f960413	1.1719993
78	0x3f032ded	0.5124195
79	0x3e5e1af4	0.2168997
80	0xbf8fb588	-1.1227274
81	0xbd3a28a0	-0.0454489
82	0x3e9e5555	0.30924478
83	0xbf115ee6	-0.5678543
84	0x3f8c28e8	1.0949984
85	0xbe1754c2	-0.14778426
86	0xbe3c2acd	-0.18375702
87	0xbf48c98a	-0.78432524
88	0x3f068b1e	0.52556026
89	0x3f116abc	0.5680349
90	0x3ec785c5	0.38969246
91	0x3e3dbd92	0.18529347
92	0x3fc220ef	1.51663
93	0xbe26e39d	-0.16297765
94	0x3ff6221d	1.922916
95	0x3fbd199f	1.4773444
96	0x3f8ffbb9	1.1248695
97	0x4003ed40	2.0613556
98	0xbe52c128	-0.20581496
99	0x3ecf209e	0.40454572
100	0x3f2c7b32	0.6737548
101	0x3e7e062d	0.24807043
102	0x3e24168a	0.16024223
103	0xbe7252ac	-0.2366435
104	0x3f841023	1.0317425
105	0xbe93288e	-0.28741878
106	0xbf086c1b	-0.53289956
107	0x3f352aa2	0.7076818
108	0x3fc3de12	1.5302145
109	0x3ec88865	0.3916656
110	0xbe768ce3	-0.24077182
111	0x3f061d54	0.523885
112	0x3f488f0c	0.7834327
113	0xbddbde2a	-0.10735734
114	0x3f4a9c1f	0.7914447
115	0xbe69cf9b	-0.22833101
116	0x3f0ea719	0.5572372
117	0xbd1f93f0	-0.038959444
118	0x3e9ca890	0.30597353
119	0x3dd44c2d	0.10366092

fc3.bias f4 [10]
0	0x3f3884f5	0.72077876
1	0xbcf55745	-0.02994884
2	0xbf364448	-0.7119794
3	0x3f23e0b6	0.64014757
4	0x3fd2de68	1.6474123
5	0x3fc82267	1.5635499
6	0xbeeddd84	-0.46458066
7	0xbebaf81a	-0.3651741
8	0xbfcfe060	-1.6240349
9	0x3f1e9a2c	0.61954
